src/main/ml/model.tflite (tflite, 155544 bytes, 10 tensors)

sequential_3/conv2d_9/Relu;sequential_3/conv2d_9/BiasAdd;sequential_3/conv2d_11/Conv2D;sequential_3/conv2d_9/Conv2D;sequential_3/conv2d_9/BiasAdd/ReadVariableOp f4 [32, 3, 3, 3]
-0.0005081961 0.00012815208 0.00031321903 0.0004994327 -0.00013135382 0.00016427002 -0.00024008579 -0.0004648912
0.00031271845 0.0001527683 -0.00047063787 0.0006543975 0.00041515887 0.00013910356 0.000410721 0.00044280436
-3.288982e-05 6.0215556e-05 0.0004238642 -2.3669689e-05 0.00048278816 0.00052813307 -0.00029802538 -0.00044263032
0.00046802676 -0.00056971185 -0.00057817396 -0.0009280012 -0.0008719749 0.00017290685 -0.00059694704 0.00025789443
0.00050651276 -0.00021669954 0.00046940916 0.00035283694 0.00015580382 6.363534e-05 0.00058458705 0.00025184834
-0.00025282858 -5.020611e-05 -0.00069929543 0.00034702933 -0.00014375802 -0.00027324844 0.00026866922 0.0006333732
0.0005155388 6.142066e-05 0.00013662672 0.00046494778 0.00023658083 6.0786773e-05 -0.00049784785 0.00026988995
-2.9847968e-05 4.557067e-05 0.000736191 -0.00020864359 0.00019849694 0.00041890977 -0.00061959564 -0.00029122466
0.00054963183 -0.00070034724 -3.2915314e-06 0.00043913457 -0.00080796174 0.00052492134 0.0003222416 -0.00063508435
0.00045338532 0.00059724884 -0.00021409178 -0.00021099017 -0.00027313537 -0.00046762716 0.000107280895 0.00035947407
-0.0002114199 -0.00035880232 0.00024963333 -0.00024449438 0.00047252336 -3.8096612e-06 0.00041371348 0.0005465309
0.00047829875 -0.00048524613 -0.00016662476 0.00025218003 -0.00016695053 -0.00021956909 0.00013524179 -0.0006712999
-0.0003411409 0.00045346614 -3.071016e-05 -0.00065270904 -0.0002853354 -0.00027877465 -0.0002139672 0.0005792842
-0.00047180153 0.00017386703 0.00020393016 -7.828572e-05 0.00022069433 0.00035084618 0.00022217166 0.0004913488
-0.00020026036 0.0002983185 0.00031677767 -0.00047791383 -0.0004929492 0.00052845624 0.00030493469 0.00031431366
0.00048326037 0.0001759421 -0.0006139936 0.00023704019 -0.000255101 -0.00061786163 0.00041028895 -0.00026276187
-0.0005112711 0.00036022384 -0.00018522644 -0.00017761807 0.00049488497 -0.00022639064 -0.000525917 -0.00015984087
-0.00017007113 0.00036612584 -0.00021739358 -0.00023312528 0.00042660293 -0.00046243405 -0.00013513297 4.86349e-05
0.0003212017 6.527919e-05 0.00016889923 -0.0003591603 -0.0003393901 0.00039713894 0.00040814021 0.0002831406
0.00035508678 0.00018740525 5.2416133e-05 0.00020641916 0.00019526281 -0.00046399116 0.00040518894 0.0006483817
-0.00040643787 3.9642408e-05 -0.00026137472 0.00011223802 0.00022072643 -0.00060109585 0.0003917264 9.396378e-05
0.00012625563 0.0005518913 0.0004727491 0.00044951594 0.0007345445 -0.00014311864 -0.00073221436 0.00038984648
-0.0006355216 -0.0006440963 0.0005314957 -0.00061114796 0.00041824832 0.00046801625 -0.0006322905 -0.0003890486
0.00013915455 -1.6201697e-05 7.9074336e-05 -0.00037847707 -0.00049437233 -0.00015707135 -0.0005227098 0.00015462874
0.0005518281 0.00021878106 -0.00050705747 0.00023118599 -0.0005800292 -7.539291e-05 0.00045621934 -0.00023813406
0.00048561028 -0.00015118426 -0.0006540578 1.37749585e-05 0.0006500089 -0.0002770886 -0.00035365197 0.0005875254
-9.823384e-06 0.00013387471 0.00067547755 -8.748591e-05 -0.00041426587 0.0005687304 -1.7350794e-05 -0.00042038396
-0.00021162425 0.00056792726 0.00017351324 -0.00045320226 0.00025286738 0.000117890784 2.4405674e-05 0.0004926112
0.00038216278 -0.00034970554 0.00049052626 0.0005695815 -0.000629747 3.706869e-05 0.0004973468 9.904208e-05
-8.251765e-05 0.0005754271 0.00033872345 -0.00018124875 0.0005617345 -0.00045375555 -0.00052642135 -0.00038489146
-0.0005734151 -0.000110359695 -0.00011316548 0.00057651673 0.0005087502 0.00016472772 -5.4378383e-05 -0.0005430124
-0.0009398791 -0.0004359409 -0.0010386454 -0.00067796203 0.000230563 0.00040599908 0.0003252244 0.0008760098
00000000: 7738 05ba 9060 0639 8c37 a439 5cec 023a
00000010: 06bc 09b9 e63f 2c39 8abf 7bb9 a4bc f3b9
00000020: 5cf4 a339 6e30 2039 f2bf f6b9 df8b 2b3a
00000030: aea9 d939 54dc 1139 0a56 d739 3228 e839
00000040: 2df3 09b8 f68f 7c38 173a de39 458e c6b7
00000050: bb1e fd39 6972 0a3a 4a40 9cb9 d610 e8b9
00000060: 7d61 f539 b758 15ba 9990 17ba 1b45 73ba
00000070: 3f95 64ba 544e 3539 707c 1cba 0136 8739
00000080: 7fc7 043a d739 63b9 081b f639 f9fc b839
00000090: 455f 2339 f773 8538 f93e 193a 830a 8439
000000a0: 148e 84b9 6694 52b8 ec50 37ba 7df1 b539
000000b0: c0bd 16b9 c942 8fb9 2cdc 8c39 f508 263a
000000c0: 3925 073a f7ce 8038 7543 0f39 3cc4 f339
000000d0: af12 7839 4df5 7e38 0182 02ba 0480 8d39
000000e0: 0662 fab7 2223 3f38 f1fc 403a 56c7 5ab9
000000f0: 9e23 5039 1ea1 db39 5c6c 22ba 83af 98b9
00000100: 2b15 103a 8297 37ba 14e4 5cb6 a53b e639
00000110: 65cd 53ba e09a 093a 89f2 a839 ca7b 26ba
00000120: 59b4 ed39 b190 1c3a d37d 60b9 3e3d 5db9
00000130: 9c33 8fb9 db2b f5b9 fefb e038 cb77 bc39
00000140: 99b0 5db9 a21d bcb9 38e1 8239 7b2f 80b9
00000150: 03bd f739 7ba9 7fb6 afe7 d839 1145 0f3a
00000160: 2cc4 fa39 a268 feb9 feb7 2eb9 0837 8439
00000170: 710f 2fb9 213c 66b9 b1cf 0d39 2cfa 2fba
00000180: 28db b2b9 32bf ed39 c9ce 00b8 901a 2bba
00000190: 1299 95b9 8028 92b9 625c 60b9 1bdb 173a
000001a0: 215c f7b9 1350 3639 16d6 5539 532d a4b8
000001b0: 2f6a 6739 c7f1 b739 c0f6 6839 dccd 003a
000001c0: fbfc 51b9 a267 9c39 2e15 a639 8290 fab9
000001d0: 4339 01ba 1988 0a3a a4df 9f39 77ca a439
000001e0: 1c5e fd39 197d 3839 6af4 20ba fe8d 7839
000001f0: 14bf 85b9 fef7 21ba 0d1c d739 4dc3 89b9
00000200: d306 06ba 6ddc bc39 5839 42b9 fd3e 3ab9
00000210: 2bbb 013a 4663 6db9 b1dd 09ba f59a 27b9
00000220: 1f55 32b9 94f4 bf39 25f4 63b9 1773 74b9
00000230: ada9 df39 d972 f2b9 7bb2 0db9 54fd 4b38
00000240: f666 a839 80e6 8838 8b1a 3139 ae4d bcb9
00000250: 2bf0 b1b9 1637 d039 a7fb d539 7d72 9439
00000260: f12a ba39 3782 4439 65d9 5b38 3972 5839
00000270: 76bf 4c39 d743 f3b9 8a6f d439 29f8 293a
00000280: 2b17 d5b9 b645 2638 1f09 89b9 5461 eb38
00000290: cd72 6739 dc92 1dba a160 cd39 6c0e c538
000002a0: 7d63 0439 ccac 103a 4fdb f739 02ad eb39
000002b0: 728e 403a 1e12 16b9 13f2 3fba 4f64 cc39
000002c0: 2299 26ba 92d8 28ba 1354 0b3a 7235 20ba
000002d0: 5748 db39 1460 f539 4cc0 25ba 38f9 cbb9
000002e0: 04ea 1139 e1e8 87b7 b6d4 a538 556e c6b9
000002f0: c498 01ba 85b3 24b9 7606 09ba d623 2239
00000300: 8fa8 103a 9868 6539 0dec 04ba 846a 7239
00000310: 1a0d 18ba 431c 9eb8 b930 ef39 a0b3 79b9
00000320: 8299 fe39 3787 1eb9 1375 2bba ff1a 6737
00000330: 5c65 2a3a 3446 91b9 5d6a b9b9 2a04 1a3a
00000340: 1dcf 24b7 b860 0c39 8812 313a a478 b7b8
00000350: d331 d9b9 da16 153a 8c8c 91b7 fb66 dcb9
00000360: 74e7 5db9 f4e0 143a 1bf1 3539 c79b edb9
00000370: 4993 8439 223c f738 c9ba cc37 9422 013a
00000380: 055d c839 af58 b7b9 a996 003a f84f 153a
00000390: 9b15 25ba 347a 1b38 6160 023a d0b4 cf38
000003a0: 530d adb8 42d8 163a b196 b139 970d 3eb9
000003b0: 5d41 133a 0ae6 edb9 8aff 09ba 42cb c9b9
000003c0: 3c51 16ba e970 e7b8 4153 edb8 6221 173a
000003d0: a65d 053a c3ba 2c39 5814 64b8 f258 0eba
000003e0: 3862 76ba ff8e e4b9 2823 88ba 43b9 31ba
000003f0: 49c3 7139 46dc d439 e182 aa39 06a4 653a

sequential_3/conv2d_9/BiasAdd/ReadVariableOp f4 [32]
-0.06688745 -0.04112141 -0.012711997 0.059404206 -0.090196535 -0.09004383 0.013856473 -0.08349377
-0.012408024 0.023072897 0.045967124 0.023380078 0.20007953 0.013725753 0.0028040893 -0.10761267
0.038123455 0.041657913 0.0132301105 0.026315613 0.02951951 -0.10092539 0.021942588 0.16006647
0.12479784 -0.07106825 -0.10143181 -0.0927062 -0.049232986 0.0015758483 0.09028334 0.04814168
00000000: 4afc 88bd ec6e 28bd fb45 50bc d351 733d
00000010: f6b8 b8bd e668 b8bd 4306 633c c8fe aabd
00000020: 064b 4bbc 5f03 bd3c 0648 3c3d 9487 bf3c
00000030: a6e1 4c3e fbe1 603c d0c4 373b 0864 dcbd
00000040: 5727 1c3d 7da1 2a3d 1bc3 583c d793 d73c
00000050: e6d2 f13c f9b1 cebd f1c0 b33c 77e8 233e
00000060: 0396 ff3d 3b8c 91bd 7bbb cfbd c0dc bdbd
00000070: 87a8 49bd b28c ce3a 79e6 b83d 3630 453d

sequential_3/conv2d_10/BiasAdd/ReadVariableOp f4 [32]
-0.04756118 -0.039776377 -0.019960012 -0.02633364 0.026398567 0.019405713 -0.0043127406 0.07429963
0.018641576 -0.09664734 0.03477949 0.034327164 0.026787974 0.038617905 0.0100152055 -0.09630389
-0.042787854 0.1658406 0.081382416 -0.10845168 -0.041181713 0.07137288 -0.04338727 0.051299732
-0.044468824 -0.021714564 0.027040526 -0.051128045 -0.018510222 0.10290299 0.058669668 -0.079175755
00000000: 83cf 42bd 8eec 22bd 2e83 a3bc a5b9 d7bc
00000010: cf41 d83c bbf8 9e3c e451 8dbb 682a 983d
00000020: 38b6 983c 0aef c5bd f074 0e3d a49a 0c3d
00000030: 7472 db3c cf2d 1e3d d116 243c f93a c5bd
00000040: 5142 2fbd 1ed2 293e d3ab a63d ea1b debd
00000050: 28ae 28bd f22b 923d dab6 31bd ab1f 523d
00000060: f124 36bd bee2 b1bc 1884 dd3c a46b 51bd
00000070: c0a2 97bc cebe d23d 9b4f 703d e626 a2bd

sequential_3/conv2d_11/BiasAdd/ReadVariableOp f4 [32]
0.031033427 -0.072807655 -0.020593889 -0.13370502 -0.031669743 -0.05635725 -0.0028893966 -0.018099407
-0.008470048 -0.008936784 0.11724945 0.118385985 0.18547451 -0.017984023 0.079993404 0.016166497
-0.024855878 -0.16859598 -0.03942458 -0.017319337 0.014245791 -0.061508123 -0.090496495 0.0907557
-0.010971974 -0.015326983 0.14838864 0.0063071474 -0.058323275 -0.05066213 -0.07160481 -0.14835984
00000000: d039 fe3c 2e1c 95bd 84b4 a8bc f8e9 08be
00000010: 22b8 01bd dcd6 66bd 085c 3dbb 3545 94bc
00000020: f5c5 0abc 976b 12bc 7b20 f03d 5a74 f23d
00000030: 08ed 3d3e 3b53 93bc 95d3 a33d 9a6f 843c
00000040: 8e9e cbbc 6da4 2cbe ab7b 21bd 48e1 8dbc
00000050: 2e67 693c f1ef 7bbd 3a56 b9bd 20de b93d
00000060: cbc3 33bc 071e 7bbc 31f3 173e 30ac ce3b
00000070: 63e4 6ebd 1883 4fbd 8ba5 92bd a4eb 17be

sequential_3/conv2d_10/Conv2D f4 [32, 3, 3, 32]
-0.050004575 0.07928635 0.08323602 0.12180728 -0.088134415 0.045844518 0.15682644 -0.011715529
-0.03990614 -0.023221744 0.07970662 -0.08545884 0.013988146 0.073114134 -0.0029486876 0.2421973
0.05482799 -0.13629414 -0.15575807 0.008464193 0.006422456 0.0039849803 -0.061961148 0.0035198515
-0.20998488 0.040267844 0.018698744 0.11239242 -0.076482415 -0.066979885 0.1249546 0.045651343
0.09612379 0.12334767 0.19859967 0.023209205 0.11935472 0.0024696805 0.18304862 0.08209156
0.07464229 -0.14786305 0.040108588 0.024535835 -0.37523353 0.11912404 0.08331315 0.24911706
0.13019697 -0.039487757 -0.04270813 -0.01815166 0.103183374 0.123569764 -0.1890332 -0.20580766
-0.13123074 0.25712752 0.2106518 -0.038258586 -0.026002783 -0.07470708 0.06127156 -0.1041103
-0.03513429 0.0076906006 0.14552414 0.060852107 0.06425956 0.05595187 0.12128312 0.05541541
0.058296684 0.37693456 0.18228765 -0.09846623 -0.3859451 0.019643167 0.018838221 0.14576788
0.08272808 -0.03493057 -0.16251062 -0.06949887 -0.012937479 -0.044589777 -0.084277354 -0.2711672
-0.24606702 0.21541476 0.011851534 0.046203293 -0.14751266 -0.059559885 0.01887816 -0.23072672
-0.008212885 -0.05957664 0.1568424 0.02121586 0.08279136 0.05365386 0.062603876 0.039999627
-0.020592036 -0.19666328 0.01006245 -0.028236957 -0.13528213 -0.03892752 0.07547614 0.19826663
-0.00081999996 0.05019115 -0.046116486 -0.17242225 0.031518254 -0.0932356 0.052275933 -0.12312043
-0.14628154 0.23741984 0.20722456 0.10285827 0.12646024 0.13150012 -0.12613714 0.049021408
0.088965885 -0.09637372 0.22077759 0.013002496 0.09276412 0.053045847 0.086573705 0.08817428
-0.08199604 -0.22900857 0.14374472 -0.13527614 -0.2734987 -0.018000305 -0.015495973 0.25767303
0.0372463 -0.08309472 0.04041211 -0.043859962 0.031957652 -0.019870143 -0.05939069 -0.39219877
-0.26801437 0.3617294 0.28111202 0.13756284 0.07844348 -0.094602436 -0.079541326 -0.044561274
-0.09488114 -0.1380341 0.21175243 0.03313143 0.13621756 -0.08047513 0.069503136 0.11031585
-0.19380641 0.123003006 -0.09484628 -0.21218431 -0.26147717 -0.016146425 -0.049403116 0.3080947
0.06980942 0.056959268 -0.025590882 -0.0006914031 -0.04224689 0.15553859 -0.1866564 -0.17420594
-0.3826701 0.38804343 0.14311662 0.067016356 0.1597876 0.108908534 -0.24182457 -0.11112237
0.087822214 -0.053604554 0.041400462 -0.05055623 0.056872457 0.033256434 -0.09737098 0.010621995
0.069182105 -0.36465314 0.036059543 0.0054671825 0.055320986 0.0057995357 0.07037004 0.023652524
-0.03150601 -0.13012406 -0.014863776 -0.12622906 0.12634008 -0.124281526 -0.033127125 -0.07512653
-0.059269432 -0.035192255 0.11719604 0.09053672 0.05616899 0.1192779 -0.28018987 -0.16389425
-0.03266404 -0.027968558 0.06433982 -0.087555334 -0.040041227 -0.080054455 -0.038574144 -0.009955487
-0.07135356 0.06464362 0.08578828 -0.04506162 -0.14199775 0.010606964 0.02432964 0.12529363
-0.0040611415 -0.040236957 0.019132739 0.07769418 -0.028644351 -0.089608446 -0.07111723 -0.310784
-0.19296193 0.2551858 0.09982217 -0.03010666 0.09977363 -0.019510716 -0.09624242 -0.09433128
00000000: 99d1 4cbd e260 a23d a577 aa3d 1876 f93d
00000010: d17f b4bd 76c7 3b3d 1c97 203e 7df2 3fbc
00000020: 9f74 23bd 873b bebc 393d a33d 0b05 afbd
00000030: 892e 653c ddbc 953d c53e 41bb 9202 783e
00000040: 5093 603d b190 0bbe 0b7f 1fbe 66ad 0a3c
00000050: 7773 d23b 7094 823b f9ca 7dbd 4fad 663b
00000060: 4706 57be e5ef 243d 1c2e 993c ff2d e63d
00000070: d0a2 9cbd c02c 89bd 33e8 ff3d e7fc 3a3d
00000080: 8ddc c43d b49d fc3d b65d 4b3e 3b21 be3c
00000090: 3f70 f43d 5dda 213b 1971 3b3e 9f1f a83d
000000a0: 0fde 983d 6969 17be e748 243d 60ff c83c
000000b0: 9c1e c0be 4ef7 f33d 16a0 aa3d 8b18 7f3e
000000c0: 5b52 053e eabd 21bd b8ee 2ebd cab2 94bc
000000d0: ce51 d33d 2512 fd3d eb91 41be 3ebf 52be
000000e0: 5a61 06be 38a6 833e 1bb5 573e 09b5 1cbd
000000f0: ca03 d5bc 0700 99bd e3f7 7a3d c837 d5bd
00000100: f9e8 0fbd 6f01 fc3b 4804 153e 0f40 793d
00000110: 849a 833d ca2d 653d 4963 f83d 45fb 623d
00000120: 81c8 6e3d 91fd c03e 9da9 3a3e aaa8 c9bd
00000130: 999a c5be b5ea a03c 9d52 9a3c 2d44 153e
00000140: 576d a93d 5b13 0fbd 2f69 26be 6c55 8ebd
00000150: b8f7 53bc c5a3 36bd 9b99 acbd 6dd6 8abe
00000160: fef8 7bbe b095 5c3e f02c 423c aa3f 3d3d
00000170: 8f0d 17be 11f5 73bd 5fa6 9a3c a043 6cbe
00000180: 568f 06bc a306 74bd 4b9b 203e e2cc ad3c
00000190: 848e a93d 26c4 5b3d 7636 803d a6d6 233d
000001a0: a1b0 a8bc 1962 49be f9dc 243c 3151 e7bc
000001b0: 6687 0abe 7772 1fbd 3c93 9a3d 6806 4b3e
000001c0: 44f5 56ba 3c95 4d3d a4e4 3cbd 758f 30be
000001d0: 4919 013d 4ef2 bebd 4a1f 563d 9026 fcbd
000001e0: d4ca 15be 301e 733e ad32 543e 5ba7 d23d
000001f0: cb7e 013e f8a7 063e 182a 01be acca 483d
00000200: bf33 b63d 965f c5bd 8513 623e 6c08 553c
00000210: 1dfb bd3d 9a46 593d 8e4d b13d b894 b43d
00000220: 8aed a7bd 3981 6abe d131 133e d485 0abe
00000230: 0608 8cbe 6075 93bc d2e2 7dbc b8ed 833e
00000240: 948f 183d 912d aabd 2b87 253d 81a6 33bd
00000250: 07e6 023d b6c6 a2bc a743 73bd 47ce c8be
00000260: 2e39 89be 9934 b93e eaed 8f3e 46dd 0c3e
00000270: faa6 a03d ecbe c1bd 90e6 a2bd e285 36bd
00000280: 0b51 c2bd d058 0dbe a1d5 583e d3b4 073d
00000290: 9e7c 0b3e 25d0 a4bd a957 8e3d 47ed e13d
000002a0: 3075 46be 00e9 fb3d c43e c2bd d846 59be
000002b0: 56e0 85be 8245 84bc ec5a 4abd 97be 9d3e
000002c0: 3ef8 8e3d 1f4e 693d f8a3 d1bc 473f 35ba
000002d0: 130b 2dbd 8245 1f3e db22 3fbe 0b63 32be
000002e0: 56ed c3be a1ad c63e 2a8d 123e df3f 893d
000002f0: 5c9f 233e 700b df3d dca0 77be 2094 e3bd
00000300: 22dc b33d 7390 5bbd 8893 293d 0d14 4fbd
00000310: 18f3 683d e637 083d 706a c7bd e007 2e3c
00000320: 59af 8d3d d1b3 babe 2cb3 133d 0d26 b33b
00000330: 4298 623d 080a be3b 2b1e 903d f0c2 c13c
00000340: 720c 01bd 3e3f 05be 3287 73bc 3142 01be
00000350: 4b5f 013e 5087 febd 4fb0 07bd f0db 99bd
00000360: 81c4 72bd c125 10bd 7a04 f03d 516b b93d
00000370: 7411 663d f947 f43d 0c75 8fbe e5d3 27be
00000380: baca 05bd 511e e5bc 98c4 833d 3650 b3bd
00000390: 4502 24bd 97f3 a3bd ecff 1dbd 571c 23bc
000003a0: d121 92bd e063 843d c4b1 af3d 8992 38bd
000003b0: dc67 11be d5c8 2d3c f44e c73c f94c 003e
000003c0: 5313 85bb 82cf 24bd 43bc 9c3c 201e 9f3d
000003d0: 8fa7 eabc a284 b7bd e9a5 91bd 151f 9fbe
000003e0: d097 45be b7a7 823e 916f cc3d 3ea2 f6bc
000003f0: 1e56 cc3d f0d4 9fbc bf1a c5bd c230 c1bd

sequential_3/conv2d_11/Conv2D f4 [32, 3, 3, 32]
0.1003785 0.11501222 0.08336911 -0.01400794 -0.1687262 0.047803596 -0.15006518 0.017543547
0.04642598 -0.104723 0.002924613 -0.21605866 0.14769015 0.2224302 -0.113496535 0.2785318
0.046044648 0.03787662 0.15049206 -0.21517691 -0.05426756 -0.094333984 -0.05080152 0.15348837
-0.15455785 -0.0156642 -0.13377514 -0.037084285 -0.037977103 0.12459211 0.003031007 0.08342945
0.13609903 -0.075990416 0.19348937 -0.014767809 -0.024138348 -0.09160237 -0.18759355 0.07034237
0.16217947 -0.14512326 0.0031877714 0.067587666 0.11939599 0.08382506 -0.0052143023 0.16262907
-0.1023255 -0.030236073 -0.08879734 -0.0854724 -0.088950016 -0.07917808 0.079941794 0.052736256
-0.048502374 -0.027602045 -0.009674739 -0.055098806 -0.010649483 -0.018172873 0.113862775 0.08160692
0.10626063 0.09171939 0.20122202 0.025313862 0.029200274 0.017013857 -0.11173721 -0.0073201554
0.046675466 0.08836083 -0.00042346554 -0.001829704 -0.06399963 0.05413799 -0.059764687 0.17745502
-0.10356963 0.029079678 -0.02115646 -0.023553198 0.056276865 0.014269911 0.10065509 0.014299609
-0.058032762 0.10258473 0.044522837 -0.22551565 -0.09515318 0.0014832573 0.06356218 0.17110348
0.059496805 0.048795428 0.14784327 -0.048828747 -0.20768696 0.025746847 0.024770636 0.09868107
0.09886647 0.03784176 0.06557481 -0.08204489 -0.01799554 -0.00459604 -0.108372204 0.31233308
0.13455476 0.0966848 0.02668858 -0.09020547 0.15858312 -0.14455448 0.0075270347 0.013912688
0.0485256 0.007819713 -0.105196014 -0.076122284 -0.01873489 -0.099805385 -0.04964987 0.10832235
0.17965834 0.09977419 0.16449948 0.04347367 -0.13314489 -0.1932349 -0.15073557 -0.27391693
0.002595325 -0.07488845 -0.049660888 -0.28226912 0.014575828 -0.25190884 -0.13242099 -0.08367652
-0.0022297893 -0.07641088 -0.054121297 0.018003225 0.23586726 0.097227596 0.20678596 -0.08807839
0.14200895 0.031685896 -0.22167355 -0.15366277 0.089289576 -0.020996256 -0.010319287 0.21742532
0.15867364 -0.067874394 0.16196251 0.05405621 -0.15312515 -0.14974917 0.06437016 -0.15626045
0.062267795 -0.08182627 0.044149537 -0.08789718 0.06030044 -0.15289724 -0.09688218 -0.07612726
-0.13241242 0.068655685 -0.254699 -0.029479729 -0.024803901 -0.05246636 0.11507425 -0.12133771
0.11380943 0.06394842 0.046984915 -0.23282403 0.035768997 -0.0774729 -0.03235233 0.021879463
-0.014052036 0.08892214 0.07408939 -0.024398437 -0.104938254 -0.056927282 0.09714103 0.17070268
0.024923699 0.14082173 0.093008295 -0.1434727 0.069445394 -0.0018903653 0.058079477 0.20727126
0.29685837 0.053939097 0.04478931 -0.13732381 -0.004638073 0.18622224 -0.043910563 0.21036226
0.092371844 -0.01683086 -0.20596556 -0.1874827 0.013219673 0.101071164 -0.101920575 -0.023451846
0.15308896 0.033168588 0.14870971 -0.08557103 -0.10113009 -0.17410754 -0.016378526 -0.13277496
0.0026819916 0.051987905 -0.06714219 -0.11711211 -0.14036672 -0.058532268 -0.12222934 0.0006323843
-0.045618694 -0.030269803 -0.16672845 0.045966703 0.059713118 0.033510216 0.049948044 -0.11083507
0.092513144 0.01107094 -0.04843259 -0.13223332 -0.031388603 -0.013518122 -0.12506981 0.11925616
00000000: 3e93 cd3d 878b eb3d 6dbd aa3d 8f81 65bc
00000010: 90c6 2cbe b4cd 433d b0aa 19be 7cb7 8f3c
00000020: 2b29 3e3d 0379 d6bd ddaa 3f3b 7b3e 5dbe
00000030: 163c 173e bec4 633e df70 e8bd b89b 8e3e
00000040: 5099 3c3d 8424 1b3d 971a 1a3e 5657 5cbe
00000050: a947 5ebd 2d32 c1bd 4115 50bd 0e2c 1d3e
00000060: 6a44 1ebe 3552 80bc 5afc 08be b1e5 17bd
00000070: e18d 1bbd 262a ff3d dca3 463b 0fdd aa3d
00000080: 8b5d 0b3e dda0 9bbd 1422 463e aef4 71bc
00000090: c9bd c5bc 069a bbbd 8618 40be a90f 903d
000000a0: 6012 263e 319b 14be eee9 503b 676b 8a3d
000000b0: e385 f43d 79ac ab3d bddc aabb 3c88 263e
000000c0: 0890 d1bd a4b1 f7bc 61db b5bd 270c afbd
000000d0: 6d2b b6bd 1e28 a2bd 86b8 a33d f901 583d
000000e0: 6daa 46bd af1d e2bc cc82 1ebc 49af 61bd
000000f0: 2b7b 2ebc 47df 94bc e330 e93d 8721 a73d
00000100: 2c9f d93d 60d7 bb3d 250d 4e3e 045f cf3c
00000110: 6a35 ef3c a560 8b3c 7ad6 e4bd eadd efbb
00000120: c62e 3f3d 86f6 b43d 9504 deb9 aed2 efba
00000130: 3d12 83bd ccbf 5d3d d1cb 74bd c5b6 353e
00000140: 501c d4bd 8138 ee3c 5050 adbc a3f2 c0bc
00000150: 9282 663d 58cc 693c 4124 ce3d e848 6a3c
00000160: c3b3 6dbd f117 d23d 945d 363d 93ed 66be
00000170: acdf c2bd db69 c23a e32c 823d c035 2f3e
00000180: ecb2 733d b7dd 473d 3a64 173e a700 48bd
00000190: e4ab 54be 0deb d23c caeb ca3c 4d19 ca3d
000001a0: 817a ca3d f6ff 1a3d 164c 863d 2707 a8bd
000001b0: 626b 93bc 619a 96bb 3ff2 ddbd 1fea 9f3e
000001c0: b9c8 093e ae02 c63d 02a2 da3c a5bd b8bd
000001d0: 9d63 223e 1706 14be 58a5 f63b 0bf2 633c
000001e0: c8c2 463d 411e 003c 0271 d7bd 00e6 9bbd
000001f0: e979 99bc c466 ccbd a95d 4bbd 1cd8 dd3d
00000200: 5bf8 373e 6956 cc3d 8d72 283e 7211 323d
00000210: 2257 08be 5fdf 45be 6d5a 1abe d73e 8cbe
00000220: 5416 2a3b 1e5f 99bd 3769 4bbd 9485 90be
00000230: 74cf 6e3c 32fa 80be 5e99 07be 985e abbd
00000240: a821 12bb 4f7d 9cbd 4bae 5dbd 807b 933c
00000250: 3087 713e 431f c73d b3bf 533e 7162 b4bd
00000260: cb6a 113e 12c9 013d 64fe 62be c659 1dbe
00000270: 74dd b63d 5700 acbc 3a12 29bc bea4 5e3e
00000280: 587b 223e bb01 8bbd 80d9 253e 0b6a 5d3d
00000290: d7cc 1cbe d957 19be 81d4 833d bd02 20be
000002a0: 840c 7f3d 8894 a7bd 25d6 343d 7003 b4bd
000002b0: 98fd 763d 1891 1cbe 2a6a c6bd 9ce8 9bbd
000002c0: 1f97 07be 5a9b 8c3d e867 82be 797f f1bc
000002d0: 8d31 cbbc f7e6 56bd 0cac eb3d e87f f8bd
000002e0: eb14 e93d 64f7 823d 4173 403d 6c69 6ebe
000002f0: 8382 123d 1daa 9ebd e083 04bd 8f3c b33c
00000300: 833a 66bc d01c b63d 2ebc 973d 3bdf c7bc
00000310: dee9 d6bd 952c 69bd e0f1 c63d afcc 2e3e
00000320: c92c cc3c 9233 103e 227b be3d 82ea 12be
00000330: 6339 8e3d 22c6 f7ba bfe4 6d3d eb3e 543e
00000340: d2fd 973e 3eef 5c3d ff74 373d 9d9e 0cbe
00000350: fafa 97bb 0bb1 3e3e 90db 33bd 3469 573e
00000360: 732d bd3d dfe0 89bc a3e8 52be 77fb 3fbe
00000370: 5497 583c 66fe ce3d bcbb d0bd 161e c0bc
00000380: 5ac3 1c3e c9db 073d 5c47 183e dd3f afbd
00000390: 4b1d cfbd 3f49 32be 422c 86bc 29f6 07be
000003a0: 5ac4 2f3b 45f1 543d d881 89bd 79d8 efbd
000003b0: 4bbc 0fbe 88bf 6fbd 6053 fabd 98c6 253a
000003c0: abda 3abd 61f8 f7bc ddba 2abe 9547 3c3d
000003d0: be95 743d 0242 093d 5296 4c3d 7ffd e2bd
000003e0: 8877 bd3d e362 353c 4061 46bd 2c68 07be
000003f0: 5691 00bd 1d7b 5dbc 4d12 00be 933c f43d

sequential_3/dense_7/BiasAdd/ReadVariableOp f4 [15]
0.021207487 0.08547913 -0.032345764 -0.11957562 0.06015809 -0.04105995 0.06622661 0.103007264
0.045392815 -0.15254183 0.08085086 0.039695695 -0.00030852068 -0.024143785 -0.18376052
00000000: 53bb ad3c af0f af3d fe7c 04bd 10e4 f4bd
00000010: 5468 763d 7a2e 28bd d1a1 873d 79f5 d23d
00000020: d1ed 393d ed33 1cbe 2395 a53d f497 223d
00000030: f2c0 a1b9 30c9 c5bc b82b 3cbe

sequential_3/dense_6/BiasAdd/ReadVariableOp f4 [128]
0.13068834 0.061843805 -0.05479659 -0.017387329 -0.035976354 0.11024753 -0.006001274 -0.0050411946
0.0035876066 -0.0019067713 -0.103014685 -0.0014247067 0.013844414 0.1255601 -0.0148993945 0.09177925
0.028794518 0.08877238 0.007449169 0.068104 -0.045858033 -0.077005684 -0.026547635 0.0086990325
-0.061476942 -0.09876057 0.07523872 0.077806965 -0.064740546 0.18133974 -0.019797906 0.022886863
-0.013929555 -0.018505149 0.15670949 -0.13350396 -0.035089377 0.09968345 -0.08678358 -0.01898652
0.019858954 -0.019497626 0.07268955 -0.0551973 0.033248223 -0.016168846 0.05830271 0.000606881
0.0 -0.08360638 -0.00017443241 0.1244192 -0.069648676 -0.031842783 0.075224854 -0.016922142
0.022466388 -0.029730652 -0.007085995 0.11369572 -0.13558047 -0.13188036 -0.0196728 0.1295117
-0.029145483 -0.014156153 -0.025869964 -0.059475366 -0.07461635 0.018397683 -0.046952285 0.034748692
-0.034313522 0.09724235 0.075333364 -0.0102218995 -0.027195761 0.07456166 -0.03093891 -0.033609934
0.22996508 0.010865559 -0.16256008 -0.032903433 0.023933128 0.04582111 -0.031088999 -0.089184254
-0.02859961 0.10503272 0.15890162 0.069240816 -0.016105084 -0.03980693 -0.033896007 -0.091625534
-0.0015506024 0.18389484 -0.021575056 -0.08327214 0.05631354 -0.024520898 -0.06110437 -0.0355193
0.078985624 -0.036359012 -0.017605172 0.03355612 -0.06437719 -0.057989724 0.10278722 -0.01806463
-0.12963372 -0.08541044 0.18762295 -0.034868833 -0.10421437 -0.040151216 0.13010715 0.12027831
0.122217946 -0.0014269645 -0.08589669 0.055069394 0.03747102 0.054795366 -0.07731 0.15482907
00000000: 2ad3 053e ee4f 7d3d 6472 60bd df6f 8ebc
00000010: f15b 13bd 75c9 e13d 56a6 c4bb 9b30 a5bb
00000020: 0d1e 6b3b a1ec f9ba 5df9 d2bd 39bd baba
00000030: aed3 623c d492 003e 971c 74bc c2f6 bb3d
00000040: 7be2 eb3c 4bce b53d 2918 f43b 1c7a 8b3d
00000050: a2d5 3bbd 28b5 9dbd 6d7a d9bc 6386 0e3c
00000060: 3fcf 7bbd fb42 cabd c216 9a3d 4259 9f3d
00000070: b196 84bd 20b1 393e 382f a2bc 3b7d bb3c
00000080: ca38 64bc 1c98 97bc 7478 203e 43b5 08be
00000090: e1b9 0fbd d626 cc3d 97bb b1bd 9e89 9bbc
000000a0: 3faf a23c 7cb9 9fbc 42de 943d 9016 62bd
000000b0: 4a2f 083d 8774 84bc d3ce 6e3d 1817 1f3a
000000c0: 0000 0000 d239 abbd d8e7 36b9 7ecf fe3d
000000d0: f7a3 8ebd 946d 02bd 7d0f 9a3d 4ea0 8abc
000000e0: 6e0b b83c b28d f3bc a231 e8bb 4dd9 e83d
000000f0: 9bd5 0abe a50b 07be da28 a1bc b79e 043e
00000100: 82c2 eebc 36ef 67bc 3fed d3bc 719c 73bd
00000110: 75d0 98bd bdb6 963c 0a51 40bd a554 0e3d
00000120: 568c 0cbd ff26 c73d 6148 9a3d c179 27bc
00000130: a5c9 debc c9b3 983d 9973 fdbc 92aa 09bd
00000140: f77b 6b3e 7505 323c 2676 26be c0c5 06bd
00000150: 680f c43c ebae 3b3d 5bae febc 3ca6 b6bd
00000160: bb49 eabc 651b d73d 1bb7 223e 21ce 8d3d
00000170: cfee 83bc 970c 23bd 8ad6 0abd 2ba6 bbbd
00000180: 953d cbba ee4e 3c3e 2cbe b0bc 958a aabd
00000190: 07a9 663d 0de0 c8bc 9348 7abd af7c 11bd
000001a0: 37c3 a13d 30ed 14bd b938 90bc 2472 093d
000001b0: 30d8 83bd a286 6dbd 1b82 d23d 46fc 93bc
000001c0: b4be 04be abeb aebd 3b20 403e 9fd2 0ebd
000001d0: 586e d5bd 9a75 24bd cf3a 053e 7954 f63d
000001e0: 674d fa3d fc08 bbba 9bea afbd 7290 613d
000001f0: 367b 193d 1b71 603d b554 9ebd 838b 1e3e

sequential_3/dense_6/MatMul f4 [128, 128]
0.067187294 -0.07834569 -0.03519324 0.15970646 -0.13496883 -0.028866637 0.11596024 0.010541494
-0.25294527 -0.066511415 -0.15857044 -0.050042454 0.09153391 0.1341181 0.22266608 0.21628262
-0.109869376 -0.19270937 0.14082175 -0.41288826 0.016568262 -0.21912502 0.08590335 -0.13033216
0.1436592 0.09752689 0.17781436 -0.12199523 -0.06948774 -0.08130674 0.096453704 -0.05000986
-0.109357364 0.1017531 -0.02630941 0.18246368 -0.006259933 0.16757557 -0.14018425 -0.06665737
0.082241505 -0.033870105 -0.11379744 0.21054545 0.00028495447 0.00016403198 0.020015392 0.2642283
-0.024104076 -0.046871148 -0.0071050455 -0.33975384 0.08373 -0.06822032 0.11525865 -0.09094159
-0.15683614 0.09949513 0.08621018 0.05477854 -0.00450585 0.08828056 0.013497736 0.030215127
-0.18461998 -0.18495695 0.013794517 0.18395688 0.085239865 -0.04355611 -0.18523064 -0.034104776
0.35477585 0.028299052 -0.09744772 0.17914781 0.11684158 0.12022613 0.12554151 0.21117829
-0.030894138 -0.24557501 0.032506593 -0.28869966 0.084713474 0.014832314 -0.03361516 -0.015953898
0.008686561 0.025323361 0.14103039 -0.30839837 -0.010683032 0.055863004 0.06760471 0.022250379
-0.13443142 -0.25090355 0.08016522 0.2263151 -0.042389743 0.13289355 -0.03199229 0.16220802
0.16692038 0.026264837 0.06855873 0.04776004 0.09025419 -0.13031036 0.09627859 -0.013450088
-0.11228337 -0.19130501 0.09871104 -0.34708893 0.0028174275 -0.11653781 0.16327807 -0.13045382
-0.053195294 -0.09143625 0.14665818 -0.073454715 -0.18849698 -0.035056695 0.10401777 -0.109797165
0.2994645 0.051653095 0.08344624 0.0386074 0.13805823 0.06280592 0.16909023 -0.044139463
0.18362892 0.14895742 0.122749195 0.03772852 0.107478276 0.031905524 0.089707315 -0.11582696
0.13664787 -0.12886028 0.08035794 -0.037135437 -0.10343889 -0.18741187 0.18233731 -0.16401911
0.051742982 0.11042802 -0.06979387 0.16847053 -0.105353534 -0.0065717436 0.058795217 -0.094027266
0.09873245 0.14494371 0.033221673 -0.17447208 -0.04151715 0.12478271 -0.15486185 0.01256305
-0.20244332 0.13240281 0.024424665 0.06285202 0.24353305 0.041680947 0.0929935 -0.14288862
0.09178266 -0.026739266 0.074141204 0.017842012 -0.1770525 0.068320684 0.0026488958 -0.0072323903
0.14029446 -0.117105335 0.14681569 -0.13280255 0.04774205 0.041054934 0.17804927 0.010349011
0.11120552 -0.08961369 -0.10386255 -0.24668431 -0.1078754 0.05661053 -0.11132867 0.008636485
0.30811664 0.033434656 0.12456398 0.037578367 0.06371179 0.097971275 -0.15573782 -0.08443721
0.016857164 -0.07066942 0.03290686 -0.041614544 -0.17471136 0.22826868 0.04625088 0.17789654
0.1045449 -0.10908872 -0.075921275 -0.098053 0.18698698 0.038536828 -0.05411226 -0.30955142
0.13807943 0.07908382 0.016505633 -0.346071 -0.14060237 -0.25485337 0.11112196 0.04243263
0.09808307 -0.080077775 -0.09891287 0.02091721 0.16668315 0.15258549 -0.1890173 -0.15136985
0.021591896 0.113339506 -0.09204901 0.1227053 -0.106254205 0.1657593 -0.21665055 0.12383434
-0.08304648 0.12506457 0.00405832 0.13016 -0.009235516 -0.031560637 -0.13920474 0.0042631663
00000000: 7e99 893d b573 a0bd c926 10bd 178a 233e
00000010: 4535 0abe ba79 ecbc 907c ed3d 3bb6 2c3c
00000020: 0b82 81be 2337 88bd 4a60 22be 51f9 4cbd
00000030: 2176 bb3d 4156 093e 9402 643e 3179 5d3e
00000040: 3203 e1bd 9b55 45be 9433 103e 1766 d3be
00000050: 2aba 873c 4f62 60be 18ee af3d cb75 05be
00000060: 661b 133e 2ebc c73d f814 363e a3d8 f9bd
00000070: 974f 8ebd 2684 a6bd 8589 c53d 24d7 4cbd
00000080: c1f6 dfbd ee63 d03d d586 d7bc c2d7 3a3e
00000090: 2020 cdbb ee98 2b3e 768c 0fbe a983 88bd
000000a0: 3c6e a83d 61bb 0abd a20e e9bd 3a99 573e
000000b0: f165 9539 0000 2c39 52f7 a33c ef48 873e
000000c0: e975 c5bc f6fb 3fbd 71d1 e8bb 37f4 adbe
000000d0: a27a ab3d 18b7 8bbd ba0c ec3d 963f babd
000000e0: a799 20be 1ac4 cb3d f68e b03d 765f 603d
000000f0: cfa5 93bb 70cc b43d 9c25 5d3c b785 f73c
00000100: 050d 3dbe 5b65 3dbe 6602 623c 315f 3c3e
00000110: 3d92 ae3d e467 32bd 1aad 3dbe 73b1 0bbd
00000120: 2ea5 b53e 6ad3 e73c ac92 c7bd 8672 373e
00000130: a34a ef3d 1e39 f63d f48d 003e 1f3f 583e
00000140: b415 fdbc 0478 7bbe a225 053d 71d0 93be
00000150: 427e ad3d 3c03 733c 0db0 09bd c0b1 82bc
00000160: 1452 0e3c f072 cf3c 456a 103e 64e6 9dbe
00000170: e207 2fbc 9bd0 643d 5774 8a3d 6d46 b63c
00000180: 64a8 09be 6e76 80be aa2d a43d 25bf 673e
00000190: dea0 2dbd 3f15 083e 590a 03bd dc19 263e
000001a0: 2ded 2a3e 5b29 d73c 8568 8c3d 08a0 433d
000001b0: 30d7 b83d 1470 05be b62d c53d c25d 5cbc
000001c0: d3f4 e5bd 76e5 43be 0429 ca3d a4b5 b1be
000001d0: 97a4 383b 60ab eebd 5e32 273e b095 05be
000001e0: 4fe3 59bd ee42 bbbd 902d 163e 6d6f 96bd
000001f0: 5a05 41be 9c97 0fbd 4507 d53d 56dd e0bd
00000200: 6953 993e 3292 533d dde5 aa3d cb22 1e3d
00000210: 235f 0d3e 64a0 803d fd25 2d3e 95cb 34bd
00000220: 3809 3c3e 4b88 183e ee63 fb3d 3889 1a3d
00000230: 921d dc3d 5eaf 023d 78b8 b73d af36 edbd
00000240: 6bed 0b3e f3f3 03be b492 a43d 541b 18bd
00000250: c5d7 d3bd e6e8 3fbe a2b6 3a3e a0f4 27be
00000260: 73f0 533d 1628 e23d 17f0 8ebd 8a83 2c3e
00000270: 98c3 d7bd c857 d7bb 41d3 703d 5e91 c0bd
00000280: 3d34 ca3d 206c 143e 7313 083d cfa8 32be
00000290: e30d 2abd 148e ff3d 1b94 1ebe 40d5 4d3c
000002a0: 4d4d 4fbe 9a94 073e 3c16 c83c 8fb8 803d
000002b0: ba60 793e a4b9 2a3d 6073 be3d 6551 12be
000002c0: 8cf8 bb3d 4e0c dbbc 58d7 973d 6929 923c
000002d0: 404d 35be b7eb 8b3d 1999 2d3b b0fd ecbb
000002e0: 5aa9 0f3e ecd4 efbd da56 163e 64fd 07be
000002f0: 2b8d 433d 3829 283d 8c52 363e e68e 293c
00000300: b8bf e33d 6287 b7bd e3b5 d4bd d09a 7cbe
00000310: c7ed dcbd 71e0 673d 4900 e4bd 0b80 0d3c
00000320: 77c1 9d3e c7f2 083d 661b ff3d c6eb 193d
00000330: 547b 823d 2aa5 c83d bc79 1fbe 6aed acbd
00000340: 0918 8a3c 21bb 90bd 58c9 063d 0374 2abd
00000350: 89e7 32be 44bf 693e 9071 3d3d 832a 363e
00000360: a31b d63d e869 dfbd 9d7c 9bbd 03d0 c8bd
00000370: 8479 3f3e cbd8 1d3d d1a4 5dbd 867d 9ebe
00000380: b264 0d3e b3f6 a13d d236 873c 3830 b1be
00000390: 11fa 0fbe 247c 82be e993 e33d d6cd 2d3d
000003a0: c7df c83d d1ff a3bd d592 cabd 925a ab3c
000003b0: fdae 2a3e 5f3f 1c3e c08d 41be b300 1bbe
000003c0: 7de1 b03c 8b1e e83d 3184 bcbd eb4c fb3d
000003d0: ce9b d9bd cebc 293e a4d9 5dbe dc9c fd3d
000003e0: 4614 aabd ed10 003e a8fb 843b aa48 053e
000003f0: 9050 17bc ba45 01bd b08b 0ebe 08b2 8b3b

sequential_3/dense_7/MatMul f4 [15, 128]
-0.12232802 -0.30315155 -0.35852876 0.11921392 -0.6609433 0.2165039 -0.13283595 -0.42951825
-0.36373976 -0.40207306 -0.06704073 0.09782472 -0.07631966 0.20786257 -0.15829259 0.11945702
-0.114194416 0.042173482 -0.53389007 -0.11866733 -0.3225353 0.13164657 0.12459128 -0.21393672
0.24572858 0.20720704 -0.117994554 -0.041526776 -0.078940235 -0.061875332 0.07301682 -0.08020264
0.008178653 0.060597613 0.11138066 -0.08312744 0.11028673 -0.42177343 0.09380511 -0.14542504
0.06004883 -0.6294894 -0.2482929 -0.2897007 -0.36635834 0.037723407 0.201691 -0.2228223
-0.10169689 0.06958675 -0.46042404 0.101935096 -0.0036484224 0.1799598 -0.21896149 -0.051495753
0.11908937 -0.23357438 0.07233788 0.057996266 -0.386011 0.32123244 0.1729349 -0.117701575
0.08162332 -0.13930143 0.04905682 -0.14002112 -0.022178017 0.07356324 0.13480228 0.09115233
-0.18728176 0.38450253 0.0062162685 -0.1885604 -0.15884736 0.047735214 0.1993177 -0.23707864
0.18827598 -0.012584068 -0.31027642 -0.035980634 -0.26277974 0.22656776 0.15355961 0.074277036
-0.1268873 0.036067493 0.08433074 -0.28305942 -0.10607386 -0.18157366 -0.04912578 -0.53733325
-0.3853367 0.19055891 -0.12753433 -0.3676282 0.27195108 -0.050831076 -0.07680108 0.08556929
0.09481816 0.25851113 0.09708805 -0.090428755 -0.16935395 -0.29381445 0.21702236 -0.013242986
-0.11387162 -0.077466875 0.11924724 0.03506977 0.035303857 -0.08002861 0.21468651 0.14685965
0.10572396 0.100150146 -0.1845166 0.25455442 0.14764337 0.20342514 0.18263425 -0.17892048
0.18224695 -0.43328628 -0.25183573 0.04822532 -0.033409975 -0.047169477 0.10443038 -0.2634064
0.11130437 -0.076754615 -0.17677546 0.02052343 -0.024465987 0.13683538 0.04207282 -0.45786613
-0.05661465 0.13071418 -0.5360819 -0.15804999 0.30328158 0.23209277 -0.07331208 -0.026770039
-0.017635265 0.21844144 -0.08324411 0.09578367 -0.26067713 0.2781816 -0.021486312 -0.039925374
0.07392917 0.037903387 -0.36574998 -0.0807385 0.052299265 -0.3026376 -0.114418715 0.017461862
-0.042981196 -0.23234244 -0.1633402 -0.0267319 -0.057396002 0.030709794 0.015833484 -0.15626265
0.1427264 0.014021716 -0.27655622 0.24679364 0.19415222 0.10060002 0.06362475 -0.06646645
-0.073743284 -0.07307434 -0.016168386 0.20351958 -0.09382507 -0.39317507 -0.04796102 -0.02060564
-0.22806507 -0.08231822 -0.15146053 -0.22561514 -0.12180489 -0.056266278 -0.19379856 -0.05538786
-0.18459581 -0.23135948 0.0870763 0.0774176 -0.090323225 0.23418334 0.071597286 -0.014136373
0.15725337 0.026430903 -0.14401905 -0.2974281 0.20424378 0.08536156 0.11228478 -0.2583697
0.09337237 0.24125211 -0.0140511375 -0.25730845 -0.018337285 -0.079899795 0.17773503 -0.15258607
0.05692743 0.180469 -0.20727684 -0.22453324 -0.19817868 0.17742525 -0.14039384 -0.1397423
-0.039877918 -0.3820375 -0.122336775 0.28461444 -0.12494506 0.029241651 0.1521382 0.047705617
-0.20096031 -0.12757893 0.23954974 0.010648759 -0.09555179 0.060560953 0.2230108 0.15182495
0.021027615 0.23511796 -0.29230428 -0.16047728 -0.16571432 -0.0075524305 0.14020069 0.2709786
00000000: 1d87 fabd ae36 9bbe 1591 b7be 6d26 f43d
00000010: 9533 29bf 33b3 5d3e 2606 08be d1e9 dbbe
00000020: 193c babe 85dc cdbe a64c 89bd 5458 c83d
00000030: 7b4d 9cbd edd9 543e 7417 22be e2a5 f43d
00000040: c3de e9bd 1abe 2c3d 05ad 08bf db07 f3bd
00000050: 5923 a5be 5cce 063e b729 ff3d 3a12 5bbe
00000060: 46a0 7b3e 152e 543e 21a7 f1bd fb17 2abd
00000070: 6bab a1bd fd70 7dbd d889 953d 4841 a4bd
00000080: c2ff 053c 3435 783d 8b1b e43d b83e aabd
00000090: 02de e13d b0f2 d7be e51c c03d 4dea 14be
000000a0: c3f5 753d 3826 21bf 7e40 7ebe a653 94be
000000b0: 5293 bbbe dc83 1a3d 1688 4e3e 872b 64be
000000c0: 7646 d0bd 7f83 8e3d b3bc ebbe 59c3 d03d
000000d0: 5f1a 6fbb 6247 383e 7137 60be 36ed 52bd
000000e0: 21e5 f33d 1f2e 6fbe e225 943d 7e8d 6d3d
000000f0: 3ca3 c5be 9478 a43e d915 313e 860d f1bd
00000100: 212a a73d 09a5 0ebe ceef 483d b261 0fbe
00000110: acae b5bc 53a8 963d 9c09 0a3e 13ae ba3d
00000120: cac6 3fbe 84dd c43e d7b1 cb3b fa15 41be
00000130: e2a8 22be 0086 433d f019 4c3e bec4 72be
00000140: 6bcb 403e 682d 4ebc 8ddc 9ebe 6e60 13bd
00000150: 118b 86be 6101 683e bb3e 1d3e 8f1e 983d
00000160: bfee 01be 82bb 133d 98b5 ac3d 2aed 90be
00000170: 403d d9bd 72ee 39be 1d38 49bd ac8e 09bf
00000180: da4a c5be e021 433e 5c98 02be c339 bcbe
00000190: 2c3d 8b3e 3f34 50bd e249 9dbd f43e af3d
000001a0: 0630 c23d 925b 843e 19d6 c63d b632 b9bd
000001b0: 1f6b 2dbe d96e 96be 1c3b 5e3e 1cf9 58bc
000001c0: 8635 e9bd f4a6 9ebd e637 f43d 52a5 0f3d
000001d0: c79a 103d 0ae6 a3bd c8d6 5b3e 6062 163e
000001e0: ce85 d83d 851b cd3d ebf1 3cbe f554 823e
000001f0: d32f 173e ae4e 503e 7904 3b3e ee36 37be
00000200: f29e 3a3e b3d7 ddbe 9df0 80be ea87 453d
00000210: e6d8 08bd c834 41bd 98df d53d 34dd 86be
00000220: 8cf3 e33d 8631 9dbd a004 35be c120 a83c
00000230: e56c c8bc 931e 0c3e 8d54 2c3d 6e6d eabe
00000240: c3e4 67bd f0d9 053e aa3c 09bf dbd7 21be
00000250: b947 9b3e baa9 6d3e a524 96bd d74c dbbc
00000260: d577 90bc 1daf 5f3e e37b aabd 3b2a c43d
00000270: 7977 85be d26d 8e3e 1004 b0bc ca88 23bd
00000280: 2d68 973d 9540 1b3d 9543 bbbe 3a5a a5bd
00000290: c137 563d 51f3 9abe 5c54 eabd 2e0c 8f3c
000002a0: 0d0d 30bd 2deb 6dbe a742 27be dcfc dabc
000002b0: 1218 6bbd 1b93 fb3c 39b5 813c 5103 20be
000002c0: df26 123e 57bb 653c c798 8dbe 79b7 7c3e
000002d0: d7cf 463e 6207 ce3d b14d 823d 901f 88bd
000002e0: b806 97bd 00a8 95bd 9073 84bc 7067 503e
000002f0: 5c27 c0bd 3e4e c9be c672 44bd 29cd a8bc
00000300: e489 69be 7496 a8bd 7818 1bbe a807 67be
00000310: d874 f9bd 7877 66bd 2173 46be 61de 62bd
00000320: af06 3dbe 80e9 6cbe 0f55 b23d 1e8d 9e3d
00000330: 62fb b8bd c2cd 6f3e 99a1 923d 3f9c 67bc
00000340: 0707 213e 9f85 d83c bb79 13be 7f48 98be
00000350: 4825 513e 0bd2 ae3d 90f5 e53d 0949 84be
00000360: 033a bf3d cb0a 773e be36 66bc efbd 83be
00000370: 1338 96bc 81a2 a3bd 2c00 363e 863f 1cbe
00000380: bd2c 693d decc 383e 6140 54be 0bec 65be
00000390: 5aef 4abe f7ae 353e 67c3 0fbe 9b18 0fbe
000003a0: 0757 23bd 6b9a c3be b48b fabd fcb8 913e
000003b0: 32e3 ffbd 308c ef3c 1eca 1b3e f766 433d
000003c0: 8ac8 4dbe 0da4 02be 874c 753e 2278 2e3c
000003d0: a8b0 c3bd c30e 783d f15c 643e 0078 1b3e
000003e0: 1b42 ac3c c3c2 703e e8a8 95be 2854 24be
000003f0: 04b1 29be 617a f7bb c590 0f3e b5bd 8a3e
