src/main/ml/model2.tflite (tflite, 154544 bytes, 10 tensors)

sequential_6/conv2d_18/Relu;sequential_6/conv2d_18/BiasAdd;sequential_6/conv2d_20/Conv2D;sequential_6/conv2d_18/Conv2D;sequential_6/conv2d_18/BiasAdd/ReadVariableOp f4 [32, 3, 3, 3]
000000 d1 19 0e 39 f3 f8 b3 39 79 eb 22 b9 e0 4d 2d ba
       0.00013551793 0.00034327022 -0.00015537244 -0.00066110305
000010 ae c2 bf b9 99 22 f3 b9 8a f9 a5 39 45 33 0c 3a
       -0.00036575407 -0.0004637435 0.00031657174 0.0005348216
000020 94 0a 2c 38 5e b1 74 b6 43 ca 5b 3a 01 49 9d b9
       4.1017847e-05 -3.6462075e-06 0.00083843264 -0.00029999766
000030 7b 1b c7 b9 b9 76 06 38 a3 42 32 39 1b d9 cc b9
       -0.00037976712 3.205866e-05 0.00017000227 -0.00039071668
000040 0b 60 97 39 bd 6b 78 ba 74 f5 22 b8 36 41 3f 3a
       0.00028872522 -0.00094765035 -3.8852406e-05 0.0007295789
000050 38 15 b9 b9 ef 00 9b 39 fa e5 2f 3a d3 69 c5 38
       -0.0003530176 0.000295646 0.00067099894 9.413403e-05
000060 03 f6 32 b9 06 21 ef 39 1c 69 4e 39 60 96 05 39
       -0.0001706705 0.00045610237 0.00019684847 0.00012739887
000070 dc 96 3e 3a d3 22 1d 3a ce 6e 36 b9 7b 26 ce 39
       0.00072704046 0.0005994264 -0.0001739815 0.00039320052
000080 f0 88 1c 3a 6b e4 56 ba 19 1f 06 ba 23 c3 8d 39
       0.0005971333 -0.0008197489 -0.0005116328 0.00027039004
000090 86 90 ca 38 ea 63 72 3a 61 24 f0 38 5c 6b 38 39
       9.65903e-05 0.0009246456 0.00011450868 0.00017587602
0000a0 c3 ea 05 3a 8d 74 2f 3a 67 0b 96 ba 86 42 47 ba
       0.00051085296 0.00066930876 -0.001144749 -0.00076011603
0000b0 8e 35 56 b8 72 12 d2 39 9f c6 db 39 0a 80 95 39
       -5.1071453e-05 0.00040068064 0.0004191892 0.0002851489
0000c0 ef 30 ef 38 f5 99 a6 39 49 34 b2 39 44 8b 8a ba
       0.00011405523 0.00031776694 0.0003398976 -0.0010570069
0000d0 a2 8d a9 b9 60 48 88 b7 32 04 10 ba bd 87 ca ba
       -0.00032339717 -1.6246166e-05 -0.0005493789 -0.001545183
0000e0 f3 16 2b ba 1a 74 1d ba de 2f 34 b9 6a 79 ae 39
       -0.0006526552 -0.0006006375 -0.0001718397 0.00033278327
0000f0 e2 3a 89 b9 73 67 37 b9 25 7e 86 39 b8 40 91 ba
       -0.00026174547 -0.00017490778 0.00025652457 -0.001108191
000100 75 e4 a9 ba a9 2e 9e 39 84 13 cb 38 50 0a 3a b9
       -0.0012961762 0.00030170873 9.6834294e-05 -0.00017742184
000110 07 bf c7 38 77 c5 32 3a eb 8e 3b 38 68 95 05 3a
       9.524641e-05 0.00068195857 4.4717377e-05 0.00050958106
000120 72 7c df b8 c7 d4 02 b9 e4 ea 28 b9 28 bb 22 3a
       -0.000106566484 -0.00012477032 -0.00016109232 0.0006207698
000130 e2 b0 c4 39 73 fd f5 b8 e7 08 75 3a b4 37 78 3a
       0.0003751582 -0.00011729719 0.0009347335 0.00094687496
000140 f9 4e 95 3a d5 b5 3c 3a ea 43 73 ba af d2 b0 b9
       0.0011391334 0.0007198726 -0.00092798343 -0.00033726307
000150 6a b3 3a 3a c4 c3 a2 39 c2 d7 33 3a 66 15 12 b9
       0.00071220717 0.00031044905 0.00068604585 -0.00013931617
000160 2d b1 26 ba 39 11 23 39 98 0e e9 39 04 e6 4d b9
       -0.0006358799 0.00015551307 0.00044452096 -0.00019636011
000170 4d b4 38 b8 26 ba fe 39 58 e6 1f ba 75 29 97 b9
       -4.4036937e-05 0.00048585347 -0.00060996925 -0.00028831852
000180 c3 03 df 38 a8 0d 0b ba ff 04 1c 3a 29 39 66 b9
       0.00010634169 -0.0005304464 0.0005951672 -0.00021955803
000190 6e 80 1c 39 1a 39 e3 b9 8e 73 bd 39 05 50 c8 b8
       0.00014925163 -0.00043339358 0.00036134984 -9.551648e-05
0001a0 f7 db eb 39 62 5b d7 39 c4 cd 64 ba bd 1b 80 b9
       0.0004498658 0.0004107608 -0.0008728171 -0.0002443473
0001b0 18 c8 e7 39 81 b6 89 3a 0e c1 33 39 60 f8 64 ba
       0.00044208835 0.0010506661 0.00017142689 -0.00087345205
0001c0 17 fb 17 b8 b3 4a 9a 39 88 1e c2 b9 f9 3c 26 3a
       -3.623505e-05 0.00029428824 -0.0003702531 0.0006341483
0001d0 ed 1f c8 39 e5 ef 32 39 dc a3 0c 3a 4e a4 d0 39
       0.0003817076 0.0001706477 0.0005364993 0.00039795268
0001e0 80 bd 18 ba c7 86 12 39 c4 f1 84 ba 6f 40 8b ba
       -0.00058265775 0.00013973853 -0.0010142853 -0.0010624061
0001f0 00 a7 e0 b9 39 36 30 ba dd 68 dc b9 bd 9b ac 39
       -0.00042849034 -0.0006721947 -0.000420398 0.0003292243
000200 1a df 4f 35 33 d5 e7 b9 ec 65 0a 3a 43 f5 f9 b9
       7.7438165e-07 -0.000442186 0.000527947 -0.00047675715
000210 dd 52 3e 39 d7 13 af 39 80 30 20 ba d8 32 27 3a
       0.00018150681 0.00033393383 -0.00061107427 0.0006378121
000220 0c 43 58 ba 3b 9d a2 39 27 ad 31 39 33 a3 b8 b9
       -0.0008249737 0.00031016194 0.0001694454 -0.00035216808
000230 03 37 4a 3a 67 79 d7 b8 b4 6f fa 39 88 18 5d 3a
       0.0007713886 -0.00010274612 0.0004776694 0.00084341364
000240 82 66 25 3a 0b ac 6a ba f8 8f 85 38 e4 8c 4a 3a
       0.00063095253 -0.0008952028 6.3687505e-05 0.0007726683
000250 fe 63 0a ba 7e 3e 95 b9 20 b7 b2 b8 e7 18 dc b9
       -0.0005279182 -0.00028466055 -8.521811e-05 -0.00041980224
000260 6d d6 f5 39 8c 96 24 39 13 15 54 ba 22 0d c1 b8
       0.000468898 0.00015696342 -0.00080902985 -9.205403e-05
000270 35 9d 1d b9 fb bf 3f ba 7d be 5b b9 e9 85 aa b8
       -0.00015031251 -0.0007314679 -0.0002095643 -8.1311744e-05
000280 c7 d5 06 ba 0c 59 ea 38 04 5a 86 3a c8 46 73 ba
       -0.00051435496 0.00011174576 0.0010250215 -0.00092802616
000290 c4 d1 98 b9 98 03 76 b9 9a 0d f9 38 d6 fb 1b 3a
       -0.00029147987 -0.00023461727 0.00011875779 0.0005950307
0002a0 24 cb 9f b9 54 97 3a 39 e4 1e 67 39 11 e1 7c 3a
       -0.00030478195 0.00017794716 0.00022041384 0.00096465746
0002b0 66 74 87 ba d9 7c 0f ba bd e5 dd 39 95 b1 28 ba
       -0.0010334372 -0.0005473621 0.00042323573 -0.0006435153
0002c0 6c d5 f1 39 a5 5c 04 ba db 10 31 b9 dd f4 8e 39
       0.00046126114 -0.00050492055 -0.00016886315 0.00027266788
0002d0 d1 cc 7f 38 89 e7 a2 b9 d8 4d 78 ba 94 51 41 3a
       6.0987488e-05 -0.00031071555 -0.0009472049 0.0007374522
0002e0 23 66 47 39 64 dc eb 37 e1 43 80 b9 b7 9a 31 ba
       0.00019016168 2.811681e-05 -0.00024464636 -0.00067750685
0002f0 35 f1 58 38 b6 09 21 38 18 ed e7 b9 4d c7 ef b9
       5.1723055e-05 3.8394435e-05 -0.00044236402 -0.00045734123
000300 fe f3 39 ba b6 4f 07 ba 34 12 b5 b9 36 f3 05 b9
       -0.00070935476 -0.0005161719 -0.00034536573 -0.00012774472
000310 eb 68 36 3a a1 fb d5 39 26 0b a0 39 59 8a d4 39
       0.0006958383 0.00040814004 0.00030525884 0.00040538868
000320 11 a8 26 39 f0 2b 39 3a 47 3f b7 3a 1f b6 c4 3a
       0.00015893603 0.0007063737 0.001398065 0.001500789
000330 13 40 3e b9 1b 64 3d ba 39 0c c2 b9 e3 24 22 39
       -0.00018143682 -0.0007224695 -0.0003701167 0.00015463265
000340 42 4f 07 ba a3 c5 3b b9 1a 03 b8 b9 cc 2d 38 ba
       -0.00051616516 -0.00017907335 -0.00035097526 -0.0007025867
000350 1f 61 9e ba c9 3e 90 39 02 59 c0 b8 7c 34 b1 b9
       -0.0012083388 0.000275126 -9.1718524e-05 -0.00033799175
000360 ac e9 1b 3a c8 34 2e 3a c3 39 04 39 98 53 8b 38
       0.00059476006 0.0006645438 0.00012610019 6.643607e-05
000370 39 d5 3e 3a 7e 30 36 ba 32 0b 0f 3a 93 6f e6 39
       0.00072796975 -0.0006949975 0.00054566853 0.00043952148
000380 60 be 8b 39 71 9c 29 3a 1e 25 09 3a e7 07 b8 b9
       0.00026653986 0.000647015 0.0005231666 -0.00035101103
000390 3f 24 1e 3a 7e e0 14 39 31 28 48 ba 9c a1 87 39
       0.0006032623 0.0001419801 -0.00076353835 0.00025869615
0003a0 8c ca e7 b8 77 14 02 ba 25 03 ca b9 e4 d1 ef b9
       -0.00011052666 -0.0004962156 -0.00038530785 -0.00045742013
0003b0 fc e5 8a ba f8 50 77 b8 6b e3 a5 39 d3 76 3f ba
       -0.0010597105 -5.8964797e-05 0.00031640692 -0.0007303778
0003c0 81 d9 98 37 8d 9b ad 39 c0 15 1a ba 5e bf 0d 39
       1.8221095e-05 0.00033113026 -0.0005877875 0.00013518098
0003d0 33 ac da b7 2b 60 ec b7 b5 85 15 39 23 43 97 39
       -2.6067812e-05 -2.8178174e-05 0.00014259557 0.00028850985
0003e0 4f a6 18 ba e5 9f f1 39 ad 0c 21 b9 ad 60 ca b9
       -0.0005823122 0.00046086233 -0.00015358879 -0.0003860047
0003f0 86 8e 06 3a 88 72 8b 39 9c e1 21 ba 36 45 2b 39
       0.0005132932 0.00026597478 -0.0006175281 0.00016333614

sequential_6/conv2d_18/BiasAdd/ReadVariableOp f4 [32]
000000 9e 67 c5 3c d3 6a 7f bd b2 f4 85 3c 66 6e 48 3a
       0.02409726 -0.062357735 0.016352031 0.0007645845
000010 8f af 05 3e 5f a5 c7 3d 9f 56 fd bc 70 4f 57 3d
       0.13055252 0.09748339 -0.030925093 0.052565992
000020 ea 71 a9 bd 40 9e 33 bd 80 5e 84 bd a5 f1 e6 3d
       -0.082736805 -0.04385209 -0.06463337 0.11276559
000030 80 7a a7 3d bf 43 f4 bc 03 21 bc 3d 89 eb ba 3c
       0.08177662 -0.02981746 0.09185984 0.02281739
000040 0e 46 db 3c 4a 47 8b 3d f1 0c a2 b9 fd 2b 01 be
       0.026766803 0.06800707 -0.0003090869 -0.12614436
000050 55 c0 95 3d 72 01 d8 bd 3e 2d c6 b9 0f 96 6b 3d
       0.07312075 -0.10547151 -0.0003779921 0.057516154
000060 31 fc 1b bd 83 39 81 3e 70 3a 8b 3e fb 01 a4 ba
       -0.038082305 0.2523919 0.27193022 -0.0012512797
000070 6b 42 5e 3d c1 77 ff bb 90 38 5b 3d f9 b3 2f 3d
       0.05426256 -0.007796258 0.05352074 0.042896245

sequential_6/conv2d_19/BiasAdd/ReadVariableOp f4 [32]
000000 d4 83 f6 3d 19 98 fc 3c b7 bd c3 bc 32 d2 81 bd
       0.12036863 0.030834245 -0.023894174 -0.0633892
000010 43 c9 5d bd a8 37 13 bb 1a 1b ed 3d c6 80 c6 bb
       -0.054147016 -0.0022463594 0.11577435 -0.0060578315
000020 25 a8 91 bd 19 ca 9a 3d 3c 69 75 bd 48 31 b6 bc
       -0.07112149 0.07558078 -0.059914812 -0.022240296
000030 88 9d 1a bc a2 68 32 3c 5a d0 9c bd 9d 9b 0a be
       -0.009436972 0.010889204 -0.076569274 -0.13535924
000040 2b d2 40 3e 29 16 56 bd a6 a7 0f bc f5 49 47 bc
       0.18830173 -0.052267227 -0.008767998 -0.012163629
000050 d1 de c8 3c 73 15 31 bd b8 7f 92 bc ab e8 55 3d
       0.02452031 -0.043233346 -0.017883167 0.052223843
000060 ee 2f b9 3d 15 48 00 3e 75 88 b8 bc 57 65 00 3d
       0.09042345 0.12527497 -0.022526005 0.031346645
000070 c4 de ad bd 06 58 e2 bc 00 51 13 bd 1a b9 ac 3c
       -0.08489755 -0.027629863 -0.03596592 0.021084357

sequential_6/conv2d_20/BiasAdd/ReadVariableOp f4 [32]
000000 57 88 a2 bd 89 82 06 bd 56 22 ca bd 9c 45 0e be
       -0.07936161 -0.03283933 -0.0986983 -0.13893741
000010 34 c1 e7 bc 6a 9d 90 bc e0 41 95 bd 31 15 4e be
       -0.028290369 -0.017653186 -0.07287955 -0.20125271
000020 e4 cd b0 bc fd 1d 3c 3d 89 90 f4 3d e1 c3 0e 3e
       -0.021582551 0.045927037 0.119416304 0.1394191
000030 3a 78 8f 3d cd 3a 68 3e e0 87 a5 bc 49 66 a3 3d
       0.07005353 0.2267868 -0.020206392 0.07978494
000040 de ff a3 bd 08 b7 61 bc c1 29 ac bd 65 93 24 3d
       -0.08007787 -0.013776548 -0.084064014 0.04017963
000050 bb d6 11 be 99 7d 8f bd 95 e3 61 3a ae 2c 75 3d
       -0.1424207 -0.07006378 0.0008616981 0.059857063
000060 a4 b3 e1 bd 9e 08 d5 bd c3 91 2d 3d 87 c4 18 bd
       -0.11020592 -0.10402034 0.042375337 -0.037296798
000070 c9 05 1e 3d db 1e f6 3d 57 ee 21 3c 51 e1 25 bd
       0.038579736 0.12017604 0.009883485 -0.04049808

sequential_6/conv2d_19/Conv2D f4 [32, 3, 3, 32]
000000 ce 7d ae 3d 46 71 c6 3d a4 05 85 3e 15 b5 c0 bb
       0.08520089 0.09689574 0.25980866 -0.0058809617
000010 79 67 89 be 3c 34 0d be 47 4e 92 be 01 b3 23 3d
       -0.26836756 -0.13789457 -0.28575346 0.039965633
000020 5d 41 0c be 9b 4e a8 bc 9a 88 a8 bb ad 73 bd 3d
       -0.13696809 -0.020545295 -0.0051432373 0.09250579
000030 59 cc 8e bc 26 b9 fb 3d 7d b6 9c be 4c f0 ad 3b
       -0.017431425 0.12291174 -0.30607978 0.0053081866
000040 6d 72 16 3d a8 1f 37 bc cd 8d 8b be f5 ee 35 be
       0.03673022 -0.011176981 -0.27256623 -0.17766936
000050 39 7b fc 3d 8e e8 ee 3d 64 57 de ba b0 e6 0c 3d
       0.1232819 0.1166545 -0.00169633 0.03439969
000060 b1 66 95 3e d8 f2 b5 bd 32 9f 2f 3d 78 ad 94 3e
       0.2917991 -0.088842094 0.04287643 0.29038596
000070 0f db ae 3c 31 49 08 3d c6 f5 c4 3d 30 4c 9e bd
       0.02134469 0.033272926 0.0961719 -0.07729375
000080 ba 10 6b 3e 4c 22 97 3e 41 78 8e 3c 0d ab 0c be
       0.229556 0.29518354 0.017391326 -0.13737126
000090 48 98 43 3e 1a dd d5 be 67 63 92 bd 42 0f a8 bd
       0.1910106 -0.4177025 -0.07147866 -0.08206035
0000a0 17 38 0b be 2a a5 25 bd f6 0b a3 be 51 77 50 3e
       -0.13595615 -0.040440716 -0.31845063 0.20358016
0000b0 3b 9a 33 3d 8f 00 4f 3e 54 ee f7 bd e6 1b 69 3e
       0.043848258 0.20215057 -0.12106004 0.22764549
0000c0 95 7e 00 3d e7 48 42 bd 91 ae 46 bd b5 ec a2 3d
       0.031370718 -0.047432806 -0.048506323 0.079553045
0000d0 ff f3 5a 3d 04 1b e9 bd 0d 02 56 3e 7a a0 0d 3e
       0.05345535 -0.11382106 0.2089922 0.13830748
0000e0 28 e0 3d 3e 56 70 f6 3e 6c b7 b1 3d 20 a5 17 3e
       0.1854254 0.4813258 0.08677563 0.14809084
0000f0 7a 62 6b 3e 56 5f 92 3a 69 be 99 bd f4 58 df be
       0.22986785 0.0011167328 -0.07507021 -0.43622553
000100 e9 fb 1f 3e 21 50 44 bb b4 a8 49 bb ec cc 43 bd
       0.1562344 -0.0029954987 -0.003077072 -0.04780285
000110 1a 61 92 3e 1e 5b 88 3d bf 1f 77 3d 3b 82 9b be
       0.28589708 0.06658004 0.06033301 -0.30372795
000120 b4 d0 a5 bc 4d c6 a5 3e b8 37 6d 3d 96 b7 54 bc
       -0.020241119 0.32377854 0.057914466 -0.012983223
000130 95 37 95 3d 03 31 28 3e 57 68 92 be d0 cd 39 3e
       0.07285992 0.16424946 -0.2859523 0.18144917
000140 22 ec 2e 3e 53 42 16 be 58 cc 7b 3d 35 bb 2e 3d
       0.17082265 -0.14673738 0.061474174 0.042659003
000150 88 0c d3 bc 0b b0 49 3c 84 85 8b bc 16 56 4f 3e
       -0.025762811 0.012310038 -0.017031439 0.20247683
000160 3a c9 83 3c f6 9f 67 bd 74 59 a4 3e 9c 8a 11 3e
       0.016087163 -0.056549035 0.32099497 0.14213032
000170 77 b2 e2 3a da 96 b8 bd c2 9a 11 be 92 b7 e2 3d
       0.0017295618 -0.09013148 -0.14219192 0.110701695
000180 ec ff 86 3d 66 8a a2 3d 93 32 4d bc 02 e5 3f 3d
       0.06591782 0.07936554 -0.012524265 0.04684926
000190 03 85 77 bc 13 93 82 3e 35 37 13 be d5 c5 c3 3c
       -0.015107396 0.25502834 -0.14376529 0.023898045
0001a0 da 36 ab 3d f8 b5 a8 3c 16 df d2 3c 02 fa 40 3e
       0.083600715 0.020594582 0.025741141 0.1884537
0001b0 fd 14 31 be c5 01 e9 be 04 96 e9 bd cc dd c2 3c
       -0.17293163 -0.45509163 -0.11405566 0.023787402
0001c0 37 cf a7 bd fe 54 67 3e 22 df 7e be 06 c5 fc 3d
       -0.0819382 0.22591016 -0.24889806 0.12342267
0001d0 e7 05 fa bd 86 7a 1b 3d 79 ac 0a bd 89 29 26 3e
       -0.12208157 0.037958644 -0.03385589 0.16226782
0001e0 e1 77 4a be d1 9e 23 3e 49 2e 85 3e ab a2 0e 3e
       -0.19772293 0.15978552 0.26011875 0.1392924
0001f0 da 17 91 bd 1c fb 02 3e 65 0e 3b 3e 51 55 83 3e
       -0.070846274 0.12791103 0.1826721 0.2565103
000200 5d 2d 19 be 46 24 31 3e ae d7 1f be 73 b4 48 3d
       -0.14958711 0.17298993 -0.15609619 0.049000215
000210 29 bb 0e 3d 3f 18 f7 3d 37 8e 4c be f2 4f 02 be
       0.03484646 0.120651715 -0.19976126 -0.12725809
000220 0f 24 fe 3d 2c a7 85 bd 69 73 69 bb 56 80 0f 3d
       0.124092214 -0.06526026 -0.0035621768 0.0350345
000230 54 73 a2 be 37 89 c8 be dc d9 ab 3e c4 7b f9 3d
       -0.31728613 -0.39167187 0.3356465 0.121818095
000240 e9 15 56 be c4 7c 19 3e b4 0b 84 3d 90 9f 31 3e
       -0.20906796 0.14989 0.06447545 0.17346025
000250 7a 17 66 be 45 04 1f 3e 1b d5 ac bd b0 cc 50 3e
       -0.22469893 0.15528972 -0.08439084 0.20390582
000260 28 7e 27 be 8e 0d 10 bf fe 59 db be 66 a0 67 3e
       -0.16356719 -0.5627068 -0.42842096 0.22619781
000270 69 45 05 be b3 4b b0 3d 0c db 82 3e a0 32 28 3d
       -0.13014759 0.086081885 0.25557745 0.041063905
000280 1c 49 54 bd b8 5b e6 bb 6f ca 94 bc 7c 4e d7 bd
       -0.051827535 -0.0070299767 -0.018162934 -0.105130166
000290 02 e9 fc bd fc fe 62 3d 87 00 0e be f6 d8 b7 be
       -0.1234913 0.055418953 -0.13867389 -0.35907716
0002a0 6a a6 d7 bd d8 29 cb 3a aa 7e 2b be 52 1d b8 be
       -0.10529788 0.0015500141 -0.16747537 -0.3595987
0002b0 c5 2b 37 be 0a 97 c6 3c 16 44 2f be 7c 5e fb 3d
       -0.1788779 0.024241943 -0.17115816 0.12273881
0002c0 9a 0c 22 bc 76 26 a4 bd b0 01 4c 3e 11 0b 43 3d
       -0.0098907 -0.08015148 0.19922519 0.047617976
0002d0 05 1e 22 3e a8 65 84 ba 65 ad 65 3c a0 ab c1 3d
       0.15831764 -0.0010101097 0.014018391 0.09456563
0002e0 44 21 f2 bd e7 63 06 bd 1a 7d 84 be db 9f 2c bd
       -0.11822751 -0.032810118 -0.25876695 -0.042144638
0002f0 17 95 aa bb 58 7b ca 3c 21 3b 31 3d 2b 25 02 bb
       -0.005205761 0.024717018 0.04326928 -0.001985858
000300 cf ed 98 bd 4c f9 07 be 26 07 94 be 0c 14 ef bd
       -0.074672334 -0.13278693 -0.28911704 -0.116737455
000310 07 59 b4 3e cd c0 bb 3d 3a 6c 6c be 10 d5 46 be
       0.35224172 0.09167633 -0.2308816 -0.19417214
000320 15 cb f0 3d d3 38 6d 3c 46 aa ab 3d af 79 c0 be
       0.11757485 0.01447888 0.083820865 -0.37592837
000330 17 04 1b be d5 29 22 be 7f a8 4e 3d 52 8d ed 3d
       -0.15138279 -0.1583627 0.05045366 0.1159922
000340 3d 2c 67 bd e8 90 c7 3d 86 2d 85 bd 2c 62 b7 3d
       -0.056438673 0.097444355 -0.065028235 0.08954272
000350 89 74 d5 be c0 cb 97 bd 60 fb 3b bd d6 4f b2 3d
       -0.41690472 -0.07411909 -0.045894027 0.08706634
000360 ed 4b 2f 3d d6 25 21 3d 18 b7 03 3e b2 81 c6 bd
       0.042797018 0.039342724 0.12862813 -0.09692706
000370 77 0b d7 bd a6 16 a8 be 8a 64 7a 3d fb 1f ca 3d
       -0.105002336 -0.3282978 0.061131038 0.09869381
000380 a5 61 67 bd fc 51 90 bd 9d c9 01 3e 38 c0 a3 bd
       -0.056489605 -0.07046887 0.12674566 -0.07995647
000390 5c b9 81 be b3 e4 de 3d e0 bb e1 bd 74 9b 41 bd
       -0.2533673 0.10883465 -0.110221624 -0.047267392
0003a0 4e 21 1c 3e 5e af c0 bc 94 bd 77 bd bb af 8a be
       0.1524708 -0.023521122 -0.06048353 -0.27087197
0003b0 5c ce af 3c ba 7e 9e be 99 ab 1e be 59 b0 81 be
       0.021460705 -0.3095606 -0.15495147 -0.25329855
0003c0 eb 5f 0d be 80 e8 79 3d de ae 12 bd 41 fb d7 bd
       -0.13806121 0.061012745 -0.035811298 -0.1054597
0003d0 b2 fe 5f bd 72 41 4b 3d f5 c5 4e be 9f f9 da 3d
       -0.054686256 0.04962296 -0.20192702 0.10692143
0003e0 37 f1 2e be a8 a7 a0 3e 28 38 96 3d a4 7c 02 be
       -0.17084204 0.31377912 0.0733493 -0.12742859
0003f0 71 82 75 bd 4b 81 82 bd 6f a0 73 3e d6 a2 64 3d
       -0.05993885 -0.06372317 0.2379167 0.055819355

sequential_6/conv2d_20/Conv2D f4 [32, 3, 3, 32]
000000 10 cb 13 be 71 23 37 bd 97 3f 6e 3d 41 a2 73 bc
       -0.14432931 -0.044711534 0.058166113 -0.014870227
000010 69 a6 6b bc bb 00 cf 3c 90 74 87 3b 92 8e a9 3d
       -0.014382937 0.025268903 0.0041337684 0.08279146
000020 87 b9 2f be 9f 46 67 3d 32 72 ed bd 65 aa ca bd
       -0.17160617 0.056463834 -0.11594047 -0.098957814
000030 26 0f ac 3d 4f 4f 84 3d f7 f3 5f be d1 e0 32 be
       0.08401327 0.064604394 -0.21870409 -0.17468573
000040 87 8d fd 3c f9 5c e5 3c 33 c5 19 3d 0d 50 1e bd
       0.030951275 0.027998434 0.03754158 -0.03865056
000050 08 45 53 be de 3c b4 bd 30 8d b5 ba 3e 91 69 3c
       -0.20631802 -0.08800672 -0.0013851281 0.01425582
000060 23 a5 90 3d 89 c5 f5 3d 72 a0 8f 3d 9c b8 70 3e
       0.07062747 0.120005675 0.070130244 0.23507923
000070 c1 b1 45 be e5 c7 f1 3d b6 74 03 bd ca a3 be bd
       -0.19306089 0.11805705 -0.032093726 -0.09308584
000080 02 30 3e be 70 47 af be 8a e7 de bb d9 45 47 3e
       -0.18573001 -0.3423419 -0.006802504 0.19460239
000090 cf 41 ca bd 52 46 c3 3d 29 7b 8f 3c eb 62 5c bd
       -0.09875833 0.09534897 0.017514782 -0.053805273
0000a0 f4 da dd 3c 6f 2a 05 3e 57 5c d2 3c ed 72 14 bd
       0.027081944 0.13004468 0.025678797 -0.036242414
0000b0 50 60 16 3d bb 7a a6 3d 86 b2 58 3e 95 56 73 3e
       0.036712945 0.08128878 0.21161851 0.23763497
0000c0 70 76 9a be 21 28 84 3d 73 a8 00 3d 02 e0 45 bd
       -0.30168486 0.064529665 0.031410646 -0.048309334
0000d0 b9 03 69 bd 83 7a 93 bd 4d 89 9f bc e5 5a 5f bd
       -0.056888316 -0.07201102 -0.01947465 -0.054530043
0000e0 0c 16 e5 3c 7c 64 9f bc 4a a7 dd 3b 98 5a 5c 3e
       0.027964614 -0.019457094 0.006764327 0.21518934
0000f0 5a 82 b6 3c 43 ae 73 3c f5 c0 09 3d 1b 68 18 bd
       0.022278953 0.01487309 0.033631284 -0.037208658
000100 ed 8f eb bd 81 e0 54 3d 45 6a 28 3e 33 5c 5f 3e
       -0.11502061 0.051971916 0.16446789 0.21812515
000110 a8 9b c4 bd 16 96 18 bc 9e 90 8d 3d 3b f9 92 3c
       -0.096000016 -0.009313127 0.06912349 0.017941108
000120 90 73 7e 3d 38 f9 4f 3c a6 ec d5 3c 2e ba f1 3d
       0.062121928 0.012693696 0.02611382 0.11803089
000130 57 34 87 3b ea 33 67 3e a7 5e 94 3e 7e 11 9e 3e
       0.0041261124 0.22578397 0.28978464 0.3087272
000140 61 82 35 be cd c3 3b 3d 58 2d 70 bc 26 36 21 3d
       -0.17725517 0.045841027 -0.014659248 0.03935828
000150 29 ea 13 3e df fb dc 3c f7 45 17 bd 22 3f 0b 3d
       0.14444794 0.02697557 -0.036931958 0.033995755
000160 89 f9 06 be a3 11 07 be 6d dd 79 bd 0b 8e 1f 3e
       -0.13181128 -0.13190322 -0.061002184 0.15581529
000170 1b ae 34 bc eb b0 5e 3e ae f5 0b be 83 71 06 3e
       -0.011027838 0.21747176 -0.13667938 0.13129239
000180 aa ce d5 bd 67 16 04 3c cf 29 69 bd 39 ad 8d be
       -0.10439809 0.008061982 -0.056924637 -0.2767122
000190 08 7d 85 3d 79 c8 c4 3c fd ef 91 3d 3a e9 65 3e
       0.065179884 0.024021374 0.07125852 0.2245225
0001a0 c5 9f 33 be 93 15 a8 bb 06 53 0e 3d c3 a8 18 3e
       -0.17541416 -0.005129525 0.034747146 0.14908127
0001b0 59 f2 67 bb 10 7a 23 be 13 28 8e be 24 76 8b be
       -0.0035392253 -0.15964532 -0.2776495 -0.27238572
0001c0 ed 6d 02 bd 8a 2f 65 3c 1c fa 3b 3e e2 3d 58 3e
       -0.031843115 0.013988385 0.18357128 0.21117356
0001d0 c3 1f 86 be 99 da 8c 3d 90 cf b7 bb 94 da 94 be
       -0.26196107 0.06877632 -0.00560946 -0.29073012
0001e0 ae 80 91 bd 52 7b 42 3e 9c 32 56 3c e7 23 94 3e
       -0.07104622 0.18992355 0.01307359 0.2893364
0001f0 f6 88 ed 3d e9 e9 4f be ec 40 c1 3d 9f ff c1 bd
       0.11598389 -0.20304073 0.09436211 -0.09472584
000200 03 71 1c 3d 5f d9 33 bd 0c 61 71 3e 91 7f 3c be
       0.038193714 -0.043908473 0.23572177 -0.18408038
000210 ec 42 a9 3d a9 29 22 3e 3c 7b e6 3d c3 c3 61 3d
       0.082647175 0.15836205 0.11253974 0.055118334
000220 36 64 ec be c4 28 5c 3e 33 c5 b3 bb 5c 99 83 3e
       -0.46170205 0.21499926 -0.0054861545 0.2570294
000230 ac 4b a5 3d 7c ee ee 3d 8d 1b 81 be d5 5b fa be
       0.08071074 0.11666581 -0.25216332 -0.48898187
000240 3f 92 e4 bd f2 0d 00 be 3d 18 56 3d 17 db 12 3e
       -0.11160707 -0.1250532 0.05226921 0.14341389
000250 19 b4 97 bd 10 e3 88 bc 0c 75 b5 3b eb bd f1 bd
       -0.07407398 -0.016709834 0.0055376347 -0.11803802
000260 87 ec 38 bd 7c 62 22 3e 5f 32 4d 3d 39 c4 97 3e
       -0.045147445 0.15857881 0.050096866 0.29641894
000270 62 23 00 3e f7 21 13 3d fe ce 0a be 4b 0b 86 bd
       0.12513497 0.035921063 -0.13555524 -0.06545123
000280 6e 9b c3 3d 96 5d 81 3d 50 73 a5 3d 36 b1 2a bd
       0.0955113 0.06316678 0.08078635 -0.041672908
000290 11 89 40 bd c8 13 3d 3d a9 2a cd 3d 87 11 44 bd
       -0.047005717 0.046161443 0.100179024 -0.047868278
0002a0 ea e5 1e 3c 6d 5f b4 3d 91 e8 89 bc bd 64 bf 3d
       0.0096983705 0.088072635 -0.01683453 0.09345386
0002b0 2b 32 ce bb 8d 05 8b bd a4 35 b4 3d c9 15 ad 3d
       -0.0062926016 -0.06788168 0.08799294 0.08451421
0002c0 b8 df 5e be e6 50 3f bd 9d 8f f6 3d fd eb 22 be
       -0.2176503 -0.04670801 0.12039111 -0.15910335
0002d0 fa 18 d4 3d ec f1 a3 3c a9 f0 4a 3d c9 75 f0 3d
       0.103563264 0.020012818 0.049545918 0.11741216
0002e0 3f 6e dd 3d e7 f4 8b bd 87 bf 72 bd b6 83 36 3e
       0.108120434 -0.06833821 -0.059264686 0.17823681
0002f0 16 e3 f3 3d 0c ca 5c be 1c bb c2 bc 31 02 93 bc
       0.119085476 -0.2156145 -0.023770861 -0.01794538
000300 e2 1a 71 ba 50 81 63 3c ac b2 47 be 09 08 3a 3d
       -0.0009197426 0.013885811 -0.19501752 0.04541782
000310 2f da 0a 3e 1f 42 27 bc 23 bb ce bd 7a 7d d9 3c
       0.13559793 -0.010208636 -0.10094287 0.02654909
000320 54 c7 8e bd b7 30 e1 bd 58 8a 90 bd 70 86 2b 3e
       -0.069716126 -0.1099562 -0.07057637 0.16750503
000330 34 9f 3d 3d 0e 36 5d bd 88 3c 2d bc 69 37 77 3e
       0.046294406 -0.05400663 -0.010573514 0.24142231
000340 c1 f6 bd bd 7f 8f 86 3d 61 16 08 3e 88 74 ce bd
       -0.0927558 0.065703385 0.13289787 -0.1008082
000350 61 83 8d bd bb 36 28 3d 52 67 c2 3d d2 47 56 be
       -0.06909824 0.04106782 0.09492363 -0.20925835
000360 ae 42 d4 bd 72 a5 93 bd be 12 f7 3c 07 80 01 3e
       -0.10364281 -0.072092906 0.030160304 0.12646495
000370 43 7b ec 3b af f3 49 be 7d 5c 37 bd 7c c1 75 3e
       0.0072168424 -0.19721864 -0.044765938 0.2399959
000380 e9 5f 4d 3c 5a ac f8 bd 97 59 84 bc 59 bb c3 3d
       0.012535074 -0.121422485 -0.016156001 0.09557218
000390 af 17 d5 bc 59 a7 ab 3d 7e f3 02 be 0f 63 9f bc
       -0.02601227 0.083815284 -0.12788197 -0.019456415
0003a0 e4 42 ad bd 5a 77 38 3d 01 1f b3 3d 33 40 06 3e
       -0.08460024 0.045035698 0.08746148 0.13110428
0003b0 36 b1 9c 3d 7d de 25 be b7 74 3f be 28 ef e1 be
       0.07650988 -0.16198154 -0.18696867 -0.44127774
0003c0 86 c0 98 bd 62 36 6f bd 26 b8 d9 3d 81 92 21 be
       -0.07458596 -0.058401473 0.10630827 -0.15778543
0003d0 82 ac 1a be 2b b0 45 bd 1a 09 97 3d 95 60 84 be
       -0.15104869 -0.04826371 0.07374783 -0.25854936
0003e0 14 f0 4b bb f1 44 ae 3d b2 e8 dd bd 4b 20 6f 3e
       -0.003111844 0.08509243 -0.10835399 0.23352163
0003f0 a8 34 a6 3e 15 0b 29 bd 5f 9e e9 3c c1 7c c7 3c
       0.3246205 -0.041270334 0.0285179 0.02435148

sequential_6/dense_13/BiasAdd/ReadVariableOp f4 [13]
000000 03 6b 9e bb 72 08 c6 bc 18 a6 46 bc a5 6c 0e bc
       -0.004834534 -0.024173949 -0.012124561 -0.008692895
000010 18 74 c8 3d 69 5d 11 3e fd c0 9a bd 11 90 22 be
       0.09787768 0.1419579 -0.07556341 -0.1587527
000020 0c ad 7d 3d 11 40 10 3e bd c1 33 bd 6c 1e 9d 3d
       0.06193261 0.1408694 -0.043885935 0.07671818
000030 46 4a 2d be
       -0.16922864

sequential_6/dense_12/BiasAdd/ReadVariableOp f4 [128]
000000 e4 a7 0e 3e 7e 67 95 bb 1d 04 bc 3d 69 05 5d 3e
       0.13931233 -0.0045594564 0.09180472 0.21584095
000010 81 e4 0a be 82 97 ae bc 5f c3 fe bc 1f f0 b6 3d
       -0.1356373 -0.021312479 -0.03109902 0.08932518
000020 f4 12 55 3d 7d af 3e bd 4c 93 1c bd 53 e9 33 be
       0.05202003 -0.046554077 -0.03822641 -0.17569475
000030 a4 50 be bd 55 1d 4d bd 3b 5f d8 3c 09 8c 8d 3d
       -0.09292725 -0.0500768 0.026412597 0.06911475
000040 08 5c b2 bd 51 f3 99 3d 3d b2 f7 bc f8 9c d2 bc
       -0.0870896 0.07517112 -0.030236358 -0.025709614
000050 fc 30 3b 3e 66 35 34 3e 45 e9 f8 bc 2e b8 d5 bd
       0.18280405 0.17598495 -0.03038467 -0.1043552
000060 65 0d af bc b0 90 10 3a 81 85 63 3d 96 40 8c 3d
       -0.021368692 0.0005514724 0.05554724 0.06848256
000070 b1 38 b0 bd 2b e3 7b bd d5 69 cd 3d 68 f7 15 bd
       -0.08604563 -0.06149594 0.100299515 -0.036612898
000080 ae a4 1c bd e9 59 bd 3d 38 f2 34 bd cc f1 24 bd
       -0.03824299 0.092456646 -0.04417631 -0.040269658
000090 8f b2 85 3d 75 27 23 3e 2b c5 0d be 2d 0a 5f bd
       0.06528198 0.1593302 -0.13844745 -0.054453064
0000a0 ba ca 47 3d dd 62 d1 3c af 48 ab 3c 09 aa 12 be
       0.04877732 0.025559837 0.020908682 -0.14322676
0000b0 b1 48 d9 bc ee 20 a5 3c 9e 0e 3b bd 29 76 01 3e
       -0.02652392 0.020157304 -0.045668237 0.12642731
0000c0 2c a6 83 3e b0 3b 6b 3e 03 e8 9e 3d 86 97 0a be
       0.25712717 0.22971988 0.077590965 -0.13534364
0000d0 55 04 a2 bc ea e8 e2 3d 36 b1 3c bd 98 7f e3 bc
       -0.019777456 0.11079581 -0.04606744 -0.027770802
0000e0 9c 1e 68 3d 63 45 af bc e4 b6 b4 bd 62 93 b3 3c
       0.056669816 -0.02139539 -0.08823946 0.021920864
0000f0 d8 61 31 3d bf cf 79 3d be b7 29 3e c9 07 86 3d
       0.0433062 0.060989138 0.16573998 0.06544454
000100 73 a1 cb bd 63 ee 34 be 59 fb 9b bc 5a da 33 bd
       -0.09942903 -0.17669062 -0.01904075 -0.04390941
000110 83 c1 29 bc d1 fa 6a 3d e1 9d 4d 3d 18 1e 0c bd
       -0.010361078 0.057368103 0.050199393 -0.034208387
000120 3c db 57 3d fc b2 ec bd d6 5a 51 3e 65 9d f7 bd
       0.052699313 -0.11557576 0.20444807 -0.120905675
000130 5a a7 dd bd 2f 01 19 bd a0 86 e8 3d 97 e7 ec 3c
       -0.108229354 -0.037354644 0.11353803 0.028919024
000140 86 6a 18 3c 55 ad 02 3e ad 22 15 3e 97 2a 82 3c
       0.009302741 0.12761433 0.14564009 0.015889449
000150 e8 fb 0f 3e 58 96 b0 3d ad 2f 0b 3e 34 12 a9 bc
       0.14060938 0.08622426 0.13592406 -0.020638563
000160 54 14 84 bc 23 c7 76 bd 63 72 34 be 54 ff 93 bd
       -0.016122974 -0.060248505 -0.1762176 -0.07226434
000170 a8 a5 47 bc 4a de 2c 3e dc c4 bc 3b 91 b2 dd 3d
       -0.012185492 0.16881672 0.005760772 0.108250745
000180 8f 25 e0 3c 81 08 9d 3d 8f 73 fa bc ea 51 e8 bd
       0.02736166 0.076676376 -0.03057268 -0.11343749
000190 8b bd 93 bd a3 e7 22 bd ad 62 75 bd 1b ff f0 bd
       -0.07213887 -0.039771687 -0.059908558 -0.117674075
0001a0 94 cc 35 3d 7c fc 94 3c 66 86 49 bd 6a ec 6e bd
       0.044384554 0.0181868 -0.049200438 -0.05833093
0001b0 03 ca f2 bd 70 68 4c 3e 08 39 0c be 1d 4c ae bb
       -0.11854937 0.19961715 -0.1369363 -0.005319132
0001c0 d9 84 67 bd e3 c0 d4 3d 8d 8f 8f bc 23 55 e1 bc
       -0.056523178 0.10388353 -0.017524505 -0.027506417
0001d0 20 7e 0f be 11 8a cf 3d 92 5b f8 3d 17 24 a9 3d
       -0.14012957 0.10133756 0.12126841 0.08258837
0001e0 56 20 a1 bd 7c 2a 8d bd 64 f9 99 3c 99 67 66 bd
       -0.07867496 -0.06892869 0.018795677 -0.056251142
0001f0 54 5d 4f bd f8 25 6e bd b4 87 2b bd 75 5d ec bc
       -0.050626114 -0.05814168 -0.041877463 -0.028853158

sequential_6/dense_12/MatMul f4 [128, 128]
000000 41 6c 23 be 05 fd f6 bd 0a c1 fc be 37 86 25 3e
       -0.15959264 -0.120599784 -0.49366027 0.1616448
000010 60 bd 76 bd d4 a5 85 3c 06 38 0b bd a6 ea ce 3d
       -0.060239196 0.016314425 -0.033988975 0.101033494
000020 c2 76 85 3c 11 b5 a4 bd 00 e9 85 bd 64 8f 2b 3e
       0.01629198 -0.08042348 -0.06538582 0.16753918
000030 a0 a7 68 3d dc aa 37 3e ba 2c 83 bd f9 a0 19 3e
       0.056800485 0.17936271 -0.06405015 0.15002812
000040 48 2d 79 bb 57 bd f3 bc 10 e1 f8 3d 6a 95 7a 3d
       -0.0038021374 -0.02975337 0.12152302 0.06117765
000050 e6 53 2c bd c9 75 b5 3e 45 18 39 be b2 90 fc 3d
       -0.0420722 0.35441425 -0.18075664 0.12332286
000060 75 f9 0a 3e bb 06 b1 3d d9 5b 13 3d bd 12 9c bd
       0.13571723 0.08643862 0.035976265 -0.076207615
000070 6d 1d 53 be 96 0f 4a be ec 50 07 be 42 96 0b be
       -0.20616694 -0.19732508 -0.13214463 -0.13631538
000080 a0 3a e9 bc 09 81 c3 3d af cf 01 3e e9 75 c8 3d
       -0.028470337 0.09546096 0.12676881 0.097881146
000090 4a da ed bd 33 cf ce bd 1c a4 0a 3e df d7 16 be
       -0.11613901 -0.10098114 0.13539165 -0.14730786
0000a0 67 85 b0 3e 90 58 3a 3d 72 c1 95 bd 34 e9 ea 3d
       0.34476778 0.045494616 -0.073122874 0.11470261
0000b0 a3 97 40 bd df 36 34 3e 2a 1f 08 be 3f b0 c9 3d
       -0.047019612 0.17599057 -0.13293138 0.098480694
0000c0 7d 0d 7c be 10 f0 b9 bd 97 77 9f bd 16 5a 36 3e
       -0.2461452 -0.090789914 -0.07786482 0.17807803
0000d0 60 de d1 bd fe 36 a2 bd c5 65 64 bd 01 d6 2d 3e
       -0.10247493 -0.07920645 -0.055761117 0.16976167
0000e0 91 e0 07 bc 9a 8d 48 3d af 7b 5a 3e 5b 1d e2 3d
       -0.008293287 0.048963167 0.21336244 0.11040755
0000f0 44 39 16 3e 48 84 33 3e d6 17 1f be 7a e6 5e 3e
       0.14670283 0.1753093 -0.15536436 0.21767607
000100 24 db e4 bc eb 82 7c 3e 74 f6 2b be f2 fb 96 bd
       -0.027936526 0.24659316 -0.16793233 -0.073722735
000110 34 8a e5 bd bd 9a a1 bd dc ba ef bd 33 13 2c 3e
       -0.11208001 -0.07890842 -0.117055625 0.16804199
000120 1a 9f a2 bd 21 c6 4e 3e cb 77 7d 3e 8f 6d 38 3e
       -0.079405025 0.20192768 0.24752729 0.18010543
000130 18 c3 d7 3d be 43 9f 3c 32 c8 dc 3d 21 e2 20 be
       0.10535258 0.019441482 0.10780372 -0.15711261
000140 7f a4 09 bd 38 67 aa bc 82 65 db 3d b4 7a 69 3d
       -0.03360414 -0.020801172 0.107127205 0.057001784
000150 f4 f3 e5 3d a2 b8 44 3b 1c 76 7d 3e 7f a6 44 be
       0.11228171 0.0030017276 0.24752086 -0.19204138
000160 96 60 47 bd 9f d9 11 3c 16 2a 80 bd df d4 c4 3b
       -0.048676096 0.008901983 -0.06258027 0.0060068215
000170 37 57 03 be 56 34 81 bd 7b b1 14 be 2d 44 22 bd
       -0.12826239 -0.063088104 -0.14520828 -0.0396158
000180 45 8e c4 3d 26 f9 25 3d 51 4a c4 be af 8e e6 3c
       0.09597448 0.04052081 -0.3833795 0.028144209
000190 1b 54 12 3d 1b 00 e9 3d ce 69 21 be 73 6d 80 be
       0.03572474 0.11376973 -0.15763018 -0.25083503
0001a0 51 57 90 3d 79 06 33 bd 6f eb 5b 3e d2 a7 20 3e
       0.07047904 -0.043707345 0.2147653 0.15689018
0001b0 2b 02 8e 3e bb e6 32 3d c9 5a 0e 3e 53 14 de bd
       0.2773603 0.043677073 0.1390182 -0.1084372
0001c0 83 5c 44 be 1d a8 08 bd 1d c5 94 bd f2 2d e7 3d
       -0.19175915 -0.03336345 -0.07264159 0.1128806
0001d0 21 a0 90 bd 28 45 27 3e 3b a7 26 be 4c 2d ee 3b
       -0.07061792 0.16334975 -0.16274731 0.0072685834
0001e0 71 67 06 3e 5d 83 9c bd 0c de 1a be 14 41 a9 bd
       0.13125397 -0.07642243 -0.15123767 -0.08264366
0001f0 81 ff 89 3e 3b 01 b7 bd f6 8b 87 be 60 38 98 3c
       0.26952747 -0.089357816 -0.2647397 0.01858157
000200 6e 6c f9 3d 1f 19 3b be cd 87 08 3e e3 1f 9e 3e
       0.121788844 -0.18271302 0.13333054 0.30883703
000210 8f 0a 5a bd c6 a5 d1 3d 0a 69 68 3e fc 7c bc bc
       -0.053232726 0.10236697 0.22696319 -0.023008816
000220 b7 f7 11 bd 97 c0 84 3d bc cd 5b bd 50 bb 05 be
       -0.03563663 0.06482046 -0.053663 -0.13059735
000230 e7 94 45 3e f3 72 ed bd 40 08 94 bd eb 8e ea be
       0.19295083 -0.115941904 -0.07228136 -0.45812163
000240 b7 ba 09 be 30 5c 8c bc 5b e4 75 be 47 3b ae 3d
       -0.13450132 -0.017133802 -0.24012892 0.085074
000250 30 e4 2e 3d f4 61 09 be c6 30 a4 be 93 da a0 3d
       0.042698085 -0.13416272 -0.3206846 0.0785419
000260 da 19 94 3e e9 ca ec be 01 ae 37 be 0e cf e5 bb
       0.28925973 -0.46248558 -0.17937471 -0.007013208
000270 e8 74 31 bc 25 c2 9a 3e 60 85 da 3b bc 51 7f bc
       -0.010831095 0.30226246 0.0066687316 -0.015583452
000280 94 5e b5 bd d8 3a 40 be df 20 3f be 20 ea e5 bc
       -0.0885593 -0.18772447 -0.18664883 -0.028065741
000290 14 97 c3 bd 24 3e 37 3d d7 79 59 3e e6 a3 50 bd
       -0.095503 0.044736996 0.21237884 -0.050937556
0002a0 4e 66 51 be 53 6a fe 3c 33 8c 81 3b 37 3c 01 bd
       -0.20449182 0.031056559 0.0039534806 -0.031551566
0002b0 89 02 77 bd 6f 7b bc 3d a0 fe 28 3d de d3 bd 3c
       -0.060305152 0.092032306 0.041258454 0.023172315
0002c0 9a 8f 34 3e 6e a4 eb 3d cb ab 51 be a1 04 99 3d
       0.17632905 0.11505972 -0.2047569 0.07471586
0002d0 bc 05 35 3c 18 86 3f 3c a0 69 0c be ba 72 f0 bd
       0.01104873 0.011689685 -0.13712168 -0.11740632
0002e0 a4 8a 0a be ca ba b4 bd 79 a7 d7 bd 6b e7 22 3d
       -0.1352945 -0.0882469 -0.1052999 0.03977148
0002f0 ee 04 e7 3d 23 91 80 3e 98 d4 38 be 26 df d0 3d
       0.11280237 0.2511073 -0.18049848 0.10198812
000300 c5 30 3b 3e 46 e7 af bd b2 47 7e 3e e4 51 a5 be
       0.18280323 -0.08589034 0.24832037 -0.3228904
000310 24 33 c1 3d d4 e5 06 3d 2e c8 2a 3e 2b 85 26 be
       0.094335824 0.032934025 0.16677925 -0.16261737
000320 0d 19 5d be b5 39 65 bd 34 1f c3 3d 3b 4b dd bd
       -0.21591587 -0.055963237 0.09527436 -0.10805365
000330 5a 73 88 3d 3b 91 87 bc 5b 22 1c 3e 19 90 5d be
       0.066626266 -0.016548743 0.1524748 -0.21637
000340 64 3c 8f bd 1c 38 13 be 3c 88 1a 3b cd bf a2 bc
       -0.069939405 -0.14376873 0.0023579737 -0.019866848
000350 be 95 90 bd 66 f8 a4 3e 13 c2 0c be 93 31 d0 3d
       -0.07059811 0.32220763 -0.13745908 0.101657055
000360 df db a4 3e 50 1b 48 be b1 27 a1 bd cb df 23 3e
       0.32198998 -0.19541669 -0.07868899 0.16003339
000370 1a b5 c2 3e 00 6d 56 3e b4 b3 07 be cf db 1d bf
       0.38028795 0.20940018 -0.13252145 -0.61663526
000380 0c 13 ac 3d fb ff ae bc 4e 81 16 3e c1 b0 4d 3e
       0.084020704 -0.021362295 0.14697763 0.20086958
000390 e7 57 74 bd c4 f5 5c 3d 16 06 12 3f 7f ab c1 3d
       -0.059654143 0.053945318 0.57040536 0.094565384
0003a0 26 49 3b be c2 ca a4 bd 0c ae 12 3e dc 0c a1 3c
       -0.18289623 -0.080464855 0.14324206 0.019659452
0003b0 ee c4 8d 3d fb 2f b7 bc ee d3 c5 bd 8e 7b 2b bc
       0.06922327 -0.022361746 -0.09659563 -0.010466469
0003c0 57 81 d9 3d 2d 09 2a 3e b8 c3 eb 3d 3a c5 b9 3d
       0.10620373 0.16605063 0.1151194 0.09070821
0003d0 38 b3 98 bd 17 c0 ea 3d 0c c5 90 be a2 de 50 3e
       -0.07456058 0.114624195 -0.28275335 0.20397428
0003e0 1c ef 0d be f5 ec 87 be f5 21 b1 bd f0 cb fc bd
       -0.13860744 -0.2654797 -0.08649055 -0.123435855
0003f0 6b c9 e7 3e db 9d f9 3d 87 d9 a5 be f7 37 f6 bd
       0.45270857 0.12188312 -0.32392523 -0.12022393

sequential_6/dense_13/MatMul f4 [13, 128]
000000 3b 86 c6 3d 6f 94 82 be 4d 8a c5 bd 60 10 19 be
       0.09693571 -0.2550387 -0.096455194 -0.14947653
000010 4c cc a5 3d c2 b4 46 3e 6c 2f a9 3d 49 c4 ae be
       0.08095607 0.19404891 0.08260998 -0.3413413
000020 49 06 b7 be 2b e0 01 3e 68 c4 69 3d 79 57 9c 3d
       -0.35746983 0.1268317 0.057072073 0.076338716
000030 19 b3 06 be 25 36 9a 3d 94 e9 df bd d3 70 ea 3c
       -0.13154258 0.075298585 -0.10933223 0.028618252
000040 f2 d1 aa 3d b5 2e 9f be c6 ba c4 3d 9b 95 51 be
       0.08340825 -0.31090322 0.09605937 -0.20467226
000050 0a 8f 5d be 23 00 53 3e 8e 3d 7a be a0 3a 2f be
       -0.21636596 0.20605521 -0.24437544 -0.17112207
000060 95 9d 94 3e 80 95 0d be 63 19 2f be 0d 12 e6 be
       0.29026476 -0.13826561 -0.17099528 -0.44935647
000070 51 04 ec 3d aa 66 14 3f c7 1b c9 3e cc 5f b8 be
       0.11524261 0.5796915 0.39279005 -0.36010587
000080 bd 2b bd 3d 72 ca b5 be 4c a9 20 3e c1 0f 4f be
       0.09236858 -0.35506016 0.15689582 -0.20220853
000090 19 50 1e 3d 07 f2 41 bd 28 1f 20 bf 21 c2 7a bc
       0.038650606 -0.047349956 -0.6254754 -0.015305073
0000a0 7c e5 8f 3e 01 4b 0e 3e 26 ff 51 be ca 4f ce bc
       0.2810477 0.13895799 -0.20507488 -0.02518453
0000b0 37 b8 8f bd c4 e1 94 be e8 56 8f 3d 0e 11 e1 bd
       -0.07017558 -0.29078496 0.06998998 -0.10989581
0000c0 36 f0 71 3e ff c8 2d 3d 3a 15 4c 3e 1e 3b d6 be
       0.2362679 0.042428013 0.19929972 -0.41841978
0000d0 13 3b 49 bf d2 83 4f 3d e4 ca a3 3d 2f 7e c7 3d
       -0.78605765 0.050662823 0.07997683 0.097408645
0000e0 3f 52 95 3d 16 6b 82 3d ab 69 fd be 9f 50 8a be
       0.07291078 0.06368081 -0.4949468 -0.27014634
0000f0 35 fd fe 3d 60 28 0c 3e da cc fc be 98 55 a8 bc
       0.12450639 0.13687277 -0.4937504 -0.020548627
000100 49 9a 93 be 82 5f 8f 3d 39 d5 d5 3e d1 8c c0 3e
       -0.28828648 0.070006385 0.41764238 0.37607434
000110 74 84 fb 3d 02 46 01 bf 65 cb e9 be 84 59 48 3f
       0.12281123 -0.5049745 -0.4566299 0.7826159
000120 55 06 45 be 8b 25 3d 3e c5 eb f2 3d 58 53 7e bd
       -0.19240697 0.18471353 0.11861376 -0.0620912
000130 dd 4f a8 be eb 9d 24 be 05 a5 7b be d3 8c 0d bd
       -0.3287343 -0.16075866 -0.24574669 -0.03455813
000140 da dc 59 be 40 bb b0 3e 3a b1 a8 be 86 de d0 be
       -0.21275654 0.3451786 -0.32947713 -0.40794772
000150 be ea f9 3d 47 0d 64 3e d0 f8 9a 3d 13 e2 10 3e
       0.12202977 0.2227069 0.075669885 0.1414874
000160 2c f4 46 3e e0 2e 85 bd ba f0 09 be 9d 18 c2 3d
       0.19429082 -0.06503081 -0.13470736 0.09477351
000170 7e e4 db 3e cb 83 17 39 f6 e1 0d bf 78 a7 00 3e
       0.42947763 0.00014449579 -0.55422914 0.12563884
000180 5d ed 12 3d ed cd ca be a4 4f f4 bc 49 db 07 bf
       0.0358709 -0.39610234 -0.029823132 -0.5306898
000190 a5 65 cc 3e c7 9f 12 3e 20 20 0b 3e 7d d2 0c 3e
       0.399213 0.14318763 0.13586473 0.1375217
0001a0 c1 1b e8 bd 42 ac 40 3e da e1 3d be 5c 66 a4 3e
       -0.11333419 0.18815711 -0.18543187 0.32109344
0001b0 6c 43 dc 3d c0 c6 7a 3d 3c ee 01 be c6 58 e4 bc
       0.10755047 0.0612247 -0.12688535 -0.027874362
0001c0 30 41 39 be 42 1e ae bd 89 66 db 3b 7c b6 b9 bd
       -0.18091273 -0.08501865 0.0066955728 -0.09068009
0001d0 fd 90 71 3d d6 a6 5e 3e 01 ab 52 bc 66 5c 84 bd
       0.058976162 0.2174333 -0.012858153 -0.06462936
0001e0 ff 38 f8 be a2 90 0c 3e 02 a3 63 be 39 89 48 bf
       -0.48480985 0.13727048 -0.22230151 -0.78334385
0001f0 10 15 91 bc 67 cb 4d bf f6 d1 a9 3d 15 9d 29 3e
       -0.017710239 -0.8038849 0.08292 0.16563828
000200 5e c4 0e bd 08 39 46 be 9f d7 b4 3e e3 46 0b bf
       -0.03485524 -0.19357693 0.35320756 -0.5440504
000210 c4 f3 e2 bd 52 92 01 3e a1 0f e9 3d a6 78 95 be
       -0.11081651 0.12653473 0.11379934 -0.2919361
000220 82 61 c9 bd 35 8a 6c be 4d fa 86 bd 74 a8 c8 be
       -0.09833051 -0.23099597 -0.0659071 -0.3919102
000230 c4 45 52 3e 8b 21 5f 3e 08 18 d3 be 71 8f 91 be
       0.20534426 0.2179014 -0.41229272 -0.2842975
000240 17 36 30 3e e6 78 fe 3e c1 51 68 be cf 9d 65 be
       0.17208134 0.49701613 -0.22687437 -0.2242348
000250 d3 a8 88 be 4b 92 33 bd a6 e4 46 3d 16 82 9a 3e
       -0.26691303 -0.043840688 0.0485579 0.30177373
000260 69 00 45 be 91 d4 34 3e a3 29 75 be cb b5 25 bc
       -0.19238438 0.17659213 -0.23941664 -0.010114144
000270 75 10 9c be 47 98 53 bd 27 e4 ff 3d 5f c7 aa bc
       -0.30481306 -0.051658895 0.124946885 -0.02084702
000280 31 b1 7b 3c be 72 69 3d de 13 fd bd 17 6b bf be
       0.01536207 0.056994192 -0.12357305 -0.3738639
000290 41 f6 61 be 11 1f 1a bc 48 b2 35 3e 82 0d 82 bd
       -0.22066595 -0.009406821 0.1774379 -0.06350233
0002a0 07 35 a9 be cf 99 3d 3e 95 56 0d 3c 40 15 cd be
       -0.3304827 0.18515705 0.0086266 -0.40055275
0002b0 dd c0 4b be 91 ef 82 3e a2 c5 6a 3d 9d cd 9b bd
       -0.1989779 0.255734 0.057317384 -0.07607577
0002c0 33 f5 fe be b4 4b ac bd fc 6a bb be c4 22 d8 3c
       -0.49796447 -0.08412877 -0.3660506 0.026383765
0002d0 de 42 77 bd 46 69 5f 3e d6 40 54 3e 47 79 08 be
       -0.060366504 0.21817502 0.20727858 -0.13327514
0002e0 90 2b f7 be c4 c6 70 3e bd 28 f6 bd 3c e9 8e bc
       -0.48275423 0.23513323 -0.12019489 -0.0174452
0002f0 bf b3 4b be f5 85 b0 3d 6d f7 96 be 70 7f d1 be
       -0.19892786 0.086193 -0.29485646 -0.4091754
000300 15 6c 89 3d a2 56 56 3e 8b 19 c0 bd d4 25 f7 3d
       0.06710068 0.20931485 -0.09379872 0.12067762
000310 a1 26 84 3e c6 77 a6 bd 31 21 dd bb 56 fe 42 bf
       0.25810722 -0.08128314 -0.0067483415 -0.76169336
000320 76 22 70 3e c3 de 8c be 20 0b a2 be 53 54 8b be
       0.23450646 -0.27513704 -0.31649113 -0.27212772
000330 24 6e ca 3d d4 c7 39 be 3f 77 a8 bd 64 7a 13 3e
       0.09884289 -0.18142635 -0.082258694 0.14402157
000340 05 7f 3c 3d e5 ff 10 be 3c ff b9 3e f0 dd 61 3e
       0.046019573 -0.14160116 0.3632754 0.22057319
000350 cf 9a 1b bf 2d 8e 08 be 7d 15 e3 bb 32 0a de 3d
       -0.60783094 -0.13335486 -0.006930052 0.10841788
000360 32 2f 19 bf f5 11 f9 3d f7 8c f6 bd 99 d5 6b bd
       -0.5983764 0.12161628 -0.12038606 -0.05757675
000370 d1 70 08 3e 92 0b 80 3e 38 a9 8e bd dd 65 1e bf
       0.13324286 0.25008827 -0.0696587 -0.6187418
000380 1c 25 d3 bd ef b2 fe be 83 8b 25 3e 90 12 04 be
       -0.103098124 -0.4974589 0.16166501 -0.12897706
000390 5d 46 b0 be 1f 09 da 3d e0 e6 28 be 89 4f 1f 3d
       -0.34428683 0.10646271 -0.16494322 0.03889421
0003a0 d4 c8 05 3e 17 c0 a5 be eb ec c4 39 50 79 ce be
       0.13064891 -0.32373115 0.0003756055 -0.4032693
0003b0 1e 64 65 3e 3e 77 37 be e1 e8 59 3e 62 4e 9b 3c
       0.22401473 -0.17916581 0.21280243 0.018958274
0003c0 3c ed 66 be 1d e3 38 3e 1b b3 b8 bd a8 ac c7 3d
       -0.22551435 0.18055387 -0.09018537 0.097497284
0003d0 9b 4c 3c 3e 1c 91 1c 3e 2d 78 80 be e4 50 92 be
       0.18388598 0.1528973 -0.25091687 -0.2857734
0003e0 57 6b 04 3e 4a c2 14 be c1 6f 76 3e 2e 7a 1d 3e
       0.12931572 -0.1452724 0.24066068 0.15378639
0003f0 d2 65 e2 3d 20 42 11 bf d7 ce 82 be cc 2a 91 bd
       0.11054577 -0.56741524 -0.2554843 -0.07088241
